*** IR Dump After {anonymous}::InferQuantizedTypesPass ***


func @conv2d(%arg0: tensor<300x3xf32>) -> tensor<300x5xf32> {
  %0 = "quant.qcast"(%arg0) : (tensor<300x3xf32>) -> tensor<300x3x!quant.uniform<u8:f32, 0.037564418067230126:163>>
  %1 = "quant.stats"(%0) {layerStats: dense<tensor<2xf32>, [-6.123000e+00, 3.450000e+00]>} : (tensor<300x3x!quant.uniform<u8:f32, 0.037564418067230126:163>>) -> tensor<300x3x!quant.uniform<u8:f32, 0.037564418067230126:163>>
  %cst = constant  {name: "constant.35"} dense<tensor<3x5xf32>, [[-1.060230e-01, 1.215050e-01, 8.002390e-01, -7.688850e-01, 0.0966112986], [6.890140e-01, -4.070560e-01, -0.797852993, 3.789250e-03, -2.088810e-01], [-6.085290e-01, 2.766170e-02, 2.685570e-01, 5.774010e-01, -4.284370e-01]]>
  %2 = "quant.qcast"(%cst) : (tensor<3x5xf32>) -> tensor<3x5x!quant.uniform<u8:f32, 0.0062823070315864236:127>>
  %3 = "fxpmath.real_conv2d"(%1, %2) : (tensor<300x3x!quant.uniform<u8:f32, 0.037564418067230126:163>>, tensor<3x5x!quant.uniform<u8:f32, 0.0062823070315864236:127>>) -> tensor<300x5xf32>
  return %3 : tensor<300x5xf32>
}

func @conv2d_requantize(%arg0: tensor<300x3xf32>) -> tensor<300x5xf32> {
  %0 = "quant.qcast"(%arg0) : (tensor<300x3xf32>) -> tensor<300x3x!quant.uniform<u8:f32, 0.037564418067230126:163>>
  %1 = "quant.stats"(%0) {layerStats: dense<tensor<2xf32>, [-6.123000e+00, 3.450000e+00]>} : (tensor<300x3x!quant.uniform<u8:f32, 0.037564418067230126:163>>) -> tensor<300x3x!quant.uniform<u8:f32, 0.037564418067230126:163>>
  %cst = constant  {name: "constant.35"} dense<tensor<3x5xf32>, [[-1.060230e-01, 1.215050e-01, 8.002390e-01, -7.688850e-01, 0.0966112986], [6.890140e-01, -4.070560e-01, -0.797852993, 3.789250e-03, -2.088810e-01], [-6.085290e-01, 2.766170e-02, 2.685570e-01, 5.774010e-01, -4.284370e-01]]>
  %2 = "quant.qcast"(%cst) : (tensor<3x5xf32>) -> tensor<3x5x!quant.uniform<u8:f32, 0.0062823070315864236:127>>
  %3 = "fxpmath.real_conv2d_requantize"(%1, %2) : (tensor<300x3x!quant.uniform<u8:f32, 0.037564418067230126:163>>, tensor<3x5x!quant.uniform<u8:f32, 0.0062823070315864236:127>>) -> tensor<300x5x!quant.uniform<i8:f32, 0.0629921259842528:-1>>
  %4 = "quant.stats"(%3) {layerStats: dense<tensor<2xf32>, [-8.000000e+00, 8.000000e+00]>} : (tensor<300x5x!quant.uniform<i8:f32, 0.0629921259842528:-1>>) -> tensor<300x5x!quant.uniform<i8:f32, 0.0629921259842528:-1>>
  %5 = "quant.dcast"(%4) : (tensor<300x5x!quant.uniform<i8:f32, 0.0629921259842528:-1>>) -> tensor<300x5xf32>
  return %5 : tensor<300x5xf32>
}

func @conv2d_relu(%arg0: tensor<300x3xf32>) -> tensor<300x5xf32> {
  %0 = "quant.qcast"(%arg0) : (tensor<300x3xf32>) -> tensor<300x3x!quant.uniform<u8:f32, 0.037564418067230126:163>>
  %1 = "quant.stats"(%0) {layerStats: dense<tensor<2xf32>, [-6.123000e+00, 3.450000e+00]>} : (tensor<300x3x!quant.uniform<u8:f32, 0.037564418067230126:163>>) -> tensor<300x3x!quant.uniform<u8:f32, 0.037564418067230126:163>>
  %cst = constant  {name: "constant.35"} dense<tensor<3x5xf32>, [[-1.060230e-01, 1.215050e-01, 8.002390e-01, -7.688850e-01, 0.0966112986], [6.890140e-01, -4.070560e-01, -0.797852993, 3.789250e-03, -2.088810e-01], [-6.085290e-01, 2.766170e-02, 2.685570e-01, 5.774010e-01, -4.284370e-01]]>
  %2 = "quant.qcast"(%cst) : (tensor<3x5xf32>) -> tensor<3x5x!quant.uniform<u8:f32, 0.0062823070315864236:127>>
  %3 = "fxpmath.real_conv2d_relu"(%1, %2) : (tensor<300x3x!quant.uniform<u8:f32, 0.037564418067230126:163>>, tensor<3x5x!quant.uniform<u8:f32, 0.0062823070315864236:127>>) -> tensor<300x5xf32>
  return %3 : tensor<300x5xf32>
}

func @conv2d_relu_requantize(%arg0: tensor<300x3xf32>) -> tensor<300x5xf32> {
  %0 = "quant.qcast"(%arg0) : (tensor<300x3xf32>) -> tensor<300x3x!quant.uniform<u8:f32, 0.037564418067230126:163>>
  %1 = "quant.stats"(%0) {layerStats: dense<tensor<2xf32>, [-6.123000e+00, 3.450000e+00]>} : (tensor<300x3x!quant.uniform<u8:f32, 0.037564418067230126:163>>) -> tensor<300x3x!quant.uniform<u8:f32, 0.037564418067230126:163>>
  %cst = constant  {name: "constant.35"} dense<tensor<3x5xf32>, [[-1.060230e-01, 1.215050e-01, 8.002390e-01, -7.688850e-01, 0.0966112986], [6.890140e-01, -4.070560e-01, -0.797852993, 3.789250e-03, -2.088810e-01], [-6.085290e-01, 2.766170e-02, 2.685570e-01, 5.774010e-01, -4.284370e-01]]>
  %2 = "quant.qcast"(%cst) : (tensor<3x5xf32>) -> tensor<3x5x!quant.uniform<u8:f32, 0.0062823070315864236:127>>
  %3 = "fxpmath.real_conv2d_relu_requantize"(%1, %2) : (tensor<300x3x!quant.uniform<u8:f32, 0.037564418067230126:163>>, tensor<3x5x!quant.uniform<u8:f32, 0.0062823070315864236:127>>) -> tensor<300x5x!quant.uniform<i8:f32, 0.0629921259842528:-1>>
  %4 = "quant.stats"(%3) {layerStats: dense<tensor<2xf32>, [-8.000000e+00, 8.000000e+00]>} : (tensor<300x5x!quant.uniform<i8:f32, 0.0629921259842528:-1>>) -> tensor<300x5x!quant.uniform<i8:f32, 0.0629921259842528:-1>>
  %5 = "quant.dcast"(%4) : (tensor<300x5x!quant.uniform<i8:f32, 0.0629921259842528:-1>>) -> tensor<300x5xf32>
  return %5 : tensor<300x5xf32>
}

func @conv2d_bias(%arg0: tensor<300x3xf32>) -> tensor<300x5xf32> {
  %0 = "quant.qcast"(%arg0) : (tensor<300x3xf32>) -> tensor<300x3x!quant.uniform<u8:f32, 0.037564418067230126:163>>
  %1 = "quant.stats"(%0) {layerStats: dense<tensor<2xf32>, [-6.123000e+00, 3.450000e+00]>} : (tensor<300x3x!quant.uniform<u8:f32, 0.037564418067230126:163>>) -> tensor<300x3x!quant.uniform<u8:f32, 0.037564418067230126:163>>
  %cst = constant  {name: "constant.35"} dense<tensor<3x5xf32>, [[-1.060230e-01, 1.215050e-01, 8.002390e-01, -7.688850e-01, 0.0966112986], [6.890140e-01, -4.070560e-01, -0.797852993, 3.789250e-03, -2.088810e-01], [-6.085290e-01, 2.766170e-02, 2.685570e-01, 5.774010e-01, -4.284370e-01]]>
  %2 = "quant.qcast"(%cst) : (tensor<3x5xf32>) -> tensor<3x5x!quant.uniform<u8:f32, 0.0062823070315864236:127>>
  %cst_0 = constant  {name: "constant.37"} dense<tensor<5xf32>, [1.000000e+00, 2.000000e+00, 3.000000e+00, 4.000000e+00, 5.000000e+00]>
  %3 = "fxpmath.real_conv2d_bias"(%1, %2, %cst_0) : (tensor<300x3x!quant.uniform<u8:f32, 0.037564418067230126:163>>, tensor<3x5x!quant.uniform<u8:f32, 0.0062823070315864236:127>>, tensor<5xf32>) -> tensor<300x5xf32>
  return %3 : tensor<300x5xf32>
}

func @conv2d_bias_requantize(%arg0: tensor<300x3xf32>) -> tensor<300x5xf32> {
  %0 = "quant.qcast"(%arg0) : (tensor<300x3xf32>) -> tensor<300x3x!quant.uniform<u8:f32, 0.037564418067230126:163>>
  %1 = "quant.stats"(%0) {layerStats: dense<tensor<2xf32>, [-6.123000e+00, 3.450000e+00]>} : (tensor<300x3x!quant.uniform<u8:f32, 0.037564418067230126:163>>) -> tensor<300x3x!quant.uniform<u8:f32, 0.037564418067230126:163>>
  %cst = constant  {name: "constant.35"} dense<tensor<3x5xf32>, [[-1.060230e-01, 1.215050e-01, 8.002390e-01, -7.688850e-01, 0.0966112986], [6.890140e-01, -4.070560e-01, -0.797852993, 3.789250e-03, -2.088810e-01], [-6.085290e-01, 2.766170e-02, 2.685570e-01, 5.774010e-01, -4.284370e-01]]>
  %2 = "quant.qcast"(%cst) : (tensor<3x5xf32>) -> tensor<3x5x!quant.uniform<u8:f32, 0.0062823070315864236:127>>
  %cst_0 = constant  {name: "constant.37"} dense<tensor<5xf32>, [1.000000e+00, 2.000000e+00, 3.000000e+00, 4.000000e+00, 5.000000e+00]>
  %3 = "quant.qcast"(%cst_0) : (tensor<5xf32>) -> tensor<5x!quant.uniform<i32:f32, 0.0629921259842528>>
  %4 = "fxpmath.real_conv2d_bias_requantize"(%1, %2, %3) : (tensor<300x3x!quant.uniform<u8:f32, 0.037564418067230126:163>>, tensor<3x5x!quant.uniform<u8:f32, 0.0062823070315864236:127>>, tensor<5x!quant.uniform<i32:f32, 0.0629921259842528>>) -> tensor<300x5x!quant.uniform<i8:f32, 0.0629921259842528:-1>>
  %5 = "quant.stats"(%4) {layerStats: dense<tensor<2xf32>, [-8.000000e+00, 8.000000e+00]>} : (tensor<300x5x!quant.uniform<i8:f32, 0.0629921259842528:-1>>) -> tensor<300x5x!quant.uniform<i8:f32, 0.0629921259842528:-1>>
  %6 = "quant.dcast"(%5) : (tensor<300x5x!quant.uniform<i8:f32, 0.0629921259842528:-1>>) -> tensor<300x5xf32>
  return %6 : tensor<300x5xf32>
}

func @conv2d_bias_relu(%arg0: tensor<300x3xf32>) -> tensor<300x5xf32> {
  %0 = "quant.qcast"(%arg0) : (tensor<300x3xf32>) -> tensor<300x3x!quant.uniform<u8:f32, 0.037564418067230126:163>>
  %1 = "quant.stats"(%0) {layerStats: dense<tensor<2xf32>, [-6.123000e+00, 3.450000e+00]>} : (tensor<300x3x!quant.uniform<u8:f32, 0.037564418067230126:163>>) -> tensor<300x3x!quant.uniform<u8:f32, 0.037564418067230126:163>>
  %cst = constant  {name: "constant.35"} dense<tensor<3x5xf32>, [[-1.060230e-01, 1.215050e-01, 8.002390e-01, -7.688850e-01, 0.0966112986], [6.890140e-01, -4.070560e-01, -0.797852993, 3.789250e-03, -2.088810e-01], [-6.085290e-01, 2.766170e-02, 2.685570e-01, 5.774010e-01, -4.284370e-01]]>
  %2 = "quant.qcast"(%cst) : (tensor<3x5xf32>) -> tensor<3x5x!quant.uniform<u8:f32, 0.0062823070315864236:127>>
  %cst_0 = constant  {name: "constant.37"} dense<tensor<5xf32>, [1.000000e+00, 2.000000e+00, 3.000000e+00, 4.000000e+00, 5.000000e+00]>
  %3 = "fxpmath.real_conv2d_bias_relu"(%1, %2, %cst_0) : (tensor<300x3x!quant.uniform<u8:f32, 0.037564418067230126:163>>, tensor<3x5x!quant.uniform<u8:f32, 0.0062823070315864236:127>>, tensor<5xf32>) -> tensor<300x5xf32>
  return %3 : tensor<300x5xf32>
}

func @conv2d_bias_relu_requantize(%arg0: tensor<300x3xf32>) -> tensor<300x5xf32> {
  %0 = "quant.qcast"(%arg0) : (tensor<300x3xf32>) -> tensor<300x3x!quant.uniform<u8:f32, 0.037564418067230126:163>>
  %1 = "quant.stats"(%0) {layerStats: dense<tensor<2xf32>, [-6.123000e+00, 3.450000e+00]>} : (tensor<300x3x!quant.uniform<u8:f32, 0.037564418067230126:163>>) -> tensor<300x3x!quant.uniform<u8:f32, 0.037564418067230126:163>>
  %cst = constant  {name: "constant.35"} dense<tensor<3x5xf32>, [[-1.060230e-01, 1.215050e-01, 8.002390e-01, -7.688850e-01, 0.0966112986], [6.890140e-01, -4.070560e-01, -0.797852993, 3.789250e-03, -2.088810e-01], [-6.085290e-01, 2.766170e-02, 2.685570e-01, 5.774010e-01, -4.284370e-01]]>
  %2 = "quant.qcast"(%cst) : (tensor<3x5xf32>) -> tensor<3x5x!quant.uniform<u8:f32, 0.0062823070315864236:127>>
  %cst_0 = constant  {name: "constant.37"} dense<tensor<5xf32>, [1.000000e+00, 2.000000e+00, 3.000000e+00, 4.000000e+00, 5.000000e+00]>
  %3 = "quant.qcast"(%cst_0) : (tensor<5xf32>) -> tensor<5x!quant.uniform<i32:f32, 0.0629921259842528>>
  %4 = "fxpmath.real_conv2d_bias_relu_requantize"(%1, %2, %3) : (tensor<300x3x!quant.uniform<u8:f32, 0.037564418067230126:163>>, tensor<3x5x!quant.uniform<u8:f32, 0.0062823070315864236:127>>, tensor<5x!quant.uniform<i32:f32, 0.0629921259842528>>) -> tensor<300x5x!quant.uniform<u8:f32, 0.0629921259842528:127>>
  %5 = "quant.stats"(%4) {layerStats: dense<tensor<2xf32>, [-8.000000e+00, 8.000000e+00]>} : (tensor<300x5x!quant.uniform<u8:f32, 0.0629921259842528:127>>) -> tensor<300x5x!quant.uniform<u8:f32, 0.0629921259842528:127>>
  %6 = "quant.dcast"(%5) : (tensor<300x5x!quant.uniform<u8:f32, 0.0629921259842528:127>>) -> tensor<300x5xf32>
  return %6 : tensor<300x5xf32>
}

func @conv2d_bias_sum_relu(%arg0: tensor<300x3xf32>, %arg1: tensor<300x5xf32>) -> tensor<300x5xf32> {
  %0 = "quant.qcast"(%arg0) : (tensor<300x3xf32>) -> tensor<300x3x!quant.uniform<u8:f32, 0.037564418067230126:163>>
  %1 = "quant.stats"(%0) {layerStats: dense<tensor<2xf32>, [-6.123000e+00, 3.450000e+00]>} : (tensor<300x3x!quant.uniform<u8:f32, 0.037564418067230126:163>>) -> tensor<300x3x!quant.uniform<u8:f32, 0.037564418067230126:163>>
  %2 = "quant.qcast"(%arg1) : (tensor<300x5xf32>) -> tensor<300x5x!quant.uniform<u8:f32, 0.037564418067230126:163>>
  %3 = "quant.stats"(%2) {layerStats: dense<tensor<2xf32>, [-6.123000e+00, 3.450000e+00]>} : (tensor<300x5x!quant.uniform<u8:f32, 0.037564418067230126:163>>) -> tensor<300x5x!quant.uniform<u8:f32, 0.037564418067230126:163>>
  %cst = constant  {name: "constant.35"} dense<tensor<3x5xf32>, [[-1.060230e-01, 1.215050e-01, 8.002390e-01, -7.688850e-01, 0.0966112986], [6.890140e-01, -4.070560e-01, -0.797852993, 3.789250e-03, -2.088810e-01], [-6.085290e-01, 2.766170e-02, 2.685570e-01, 5.774010e-01, -4.284370e-01]]>
  %4 = "quant.qcast"(%cst) : (tensor<3x5xf32>) -> tensor<3x5x!quant.uniform<u8:f32, 0.0062823070315864236:127>>
  %cst_0 = constant  {name: "constant.37"} dense<tensor<5xf32>, [1.000000e+00, 2.000000e+00, 3.000000e+00, 4.000000e+00, 5.000000e+00]>
  %cst_1 = constant  {name: "constant.38"} dense<tensor<5xf32>, [1.000000e+00, 2.000000e+00, 3.000000e+00, 4.000000e+00, 5.000000e+00]>
  %5 = "fxpmath.real_conv2d_bias_sum_relu"(%1, %4, %cst_0, %3) : (tensor<300x3x!quant.uniform<u8:f32, 0.037564418067230126:163>>, tensor<3x5x!quant.uniform<u8:f32, 0.0062823070315864236:127>>, tensor<5xf32>, tensor<300x5x!quant.uniform<u8:f32, 0.037564418067230126:163>>) -> tensor<300x5xf32>
  return %5 : tensor<300x5xf32>
}

func @conv2d_bias_sum_relu_requantize(%arg0: tensor<300x3xf32>, %arg1: tensor<300x5xf32>) -> tensor<300x5xf32> {
  %0 = "quant.qcast"(%arg0) : (tensor<300x3xf32>) -> tensor<300x3x!quant.uniform<u8:f32, 0.037564418067230126:163>>
  %1 = "quant.stats"(%0) {layerStats: dense<tensor<2xf32>, [-6.123000e+00, 3.450000e+00]>} : (tensor<300x3x!quant.uniform<u8:f32, 0.037564418067230126:163>>) -> tensor<300x3x!quant.uniform<u8:f32, 0.037564418067230126:163>>
  %2 = "quant.qcast"(%arg1) : (tensor<300x5xf32>) -> tensor<300x5x!quant.uniform<u8:f32, 0.037564418067230126:163>>
  %3 = "quant.stats"(%2) {layerStats: dense<tensor<2xf32>, [-6.123000e+00, 3.450000e+00]>} : (tensor<300x5x!quant.uniform<u8:f32, 0.037564418067230126:163>>) -> tensor<300x5x!quant.uniform<u8:f32, 0.037564418067230126:163>>
  %cst = constant  {name: "constant.35"} dense<tensor<3x5xf32>, [[-1.060230e-01, 1.215050e-01, 8.002390e-01, -7.688850e-01, 0.0966112986], [6.890140e-01, -4.070560e-01, -0.797852993, 3.789250e-03, -2.088810e-01], [-6.085290e-01, 2.766170e-02, 2.685570e-01, 5.774010e-01, -4.284370e-01]]>
  %4 = "quant.qcast"(%cst) : (tensor<3x5xf32>) -> tensor<3x5x!quant.uniform<u8:f32, 0.0062823070315864236:127>>
  %cst_0 = constant  {name: "constant.37"} dense<tensor<5xf32>, [1.000000e+00, 2.000000e+00, 3.000000e+00, 4.000000e+00, 5.000000e+00]>
  %5 = "quant.qcast"(%cst_0) : (tensor<5xf32>) -> tensor<5x!quant.uniform<i32:f32, 0.0629921259842528>>
  %cst_1 = constant  {name: "constant.38"} dense<tensor<5xf32>, [1.000000e+00, 2.000000e+00, 3.000000e+00, 4.000000e+00, 5.000000e+00]>
  %6 = "fxpmath.real_conv2d_bias_sum_relu_requantize"(%1, %4, %5, %3) : (tensor<300x3x!quant.uniform<u8:f32, 0.037564418067230126:163>>, tensor<3x5x!quant.uniform<u8:f32, 0.0062823070315864236:127>>, tensor<5x!quant.uniform<i32:f32, 0.0629921259842528>>, tensor<300x5x!quant.uniform<u8:f32, 0.037564418067230126:163>>) -> tensor<300x5x!quant.uniform<u8:f32, 0.0629921259842528:127>>
  %7 = "quant.stats"(%6) {layerStats: dense<tensor<2xf32>, [-8.000000e+00, 8.000000e+00]>} : (tensor<300x5x!quant.uniform<u8:f32, 0.0629921259842528:127>>) -> tensor<300x5x!quant.uniform<u8:f32, 0.0629921259842528:127>>
  %8 = "quant.dcast"(%7) : (tensor<300x5x!quant.uniform<u8:f32, 0.0629921259842528:127>>) -> tensor<300x5xf32>
  %9 = "quant.dcast"(%6) : (tensor<300x5x!quant.uniform<u8:f32, 0.0629921259842528:127>>) -> tensor<300x5xf32>
  return %9 : tensor<300x5xf32>
}

*** IR Dump After {anonymous}::ModuleVerifier ***


func @conv2d(%arg0: tensor<300x3xf32>) -> tensor<300x5xf32> {
  %0 = "quant.qcast"(%arg0) : (tensor<300x3xf32>) -> tensor<300x3x!quant.uniform<u8:f32, 0.037564418067230126:163>>
  %1 = "quant.stats"(%0) {layerStats: dense<tensor<2xf32>, [-6.123000e+00, 3.450000e+00]>} : (tensor<300x3x!quant.uniform<u8:f32, 0.037564418067230126:163>>) -> tensor<300x3x!quant.uniform<u8:f32, 0.037564418067230126:163>>
  %cst = constant  {name: "constant.35"} dense<tensor<3x5xf32>, [[-1.060230e-01, 1.215050e-01, 8.002390e-01, -7.688850e-01, 0.0966112986], [6.890140e-01, -4.070560e-01, -0.797852993, 3.789250e-03, -2.088810e-01], [-6.085290e-01, 2.766170e-02, 2.685570e-01, 5.774010e-01, -4.284370e-01]]>
  %2 = "quant.qcast"(%cst) : (tensor<3x5xf32>) -> tensor<3x5x!quant.uniform<u8:f32, 0.0062823070315864236:127>>
  %3 = "fxpmath.real_conv2d"(%1, %2) : (tensor<300x3x!quant.uniform<u8:f32, 0.037564418067230126:163>>, tensor<3x5x!quant.uniform<u8:f32, 0.0062823070315864236:127>>) -> tensor<300x5xf32>
  return %3 : tensor<300x5xf32>
}

func @conv2d_requantize(%arg0: tensor<300x3xf32>) -> tensor<300x5xf32> {
  %0 = "quant.qcast"(%arg0) : (tensor<300x3xf32>) -> tensor<300x3x!quant.uniform<u8:f32, 0.037564418067230126:163>>
  %1 = "quant.stats"(%0) {layerStats: dense<tensor<2xf32>, [-6.123000e+00, 3.450000e+00]>} : (tensor<300x3x!quant.uniform<u8:f32, 0.037564418067230126:163>>) -> tensor<300x3x!quant.uniform<u8:f32, 0.037564418067230126:163>>
  %cst = constant  {name: "constant.35"} dense<tensor<3x5xf32>, [[-1.060230e-01, 1.215050e-01, 8.002390e-01, -7.688850e-01, 0.0966112986], [6.890140e-01, -4.070560e-01, -0.797852993, 3.789250e-03, -2.088810e-01], [-6.085290e-01, 2.766170e-02, 2.685570e-01, 5.774010e-01, -4.284370e-01]]>
  %2 = "quant.qcast"(%cst) : (tensor<3x5xf32>) -> tensor<3x5x!quant.uniform<u8:f32, 0.0062823070315864236:127>>
  %3 = "fxpmath.real_conv2d_requantize"(%1, %2) : (tensor<300x3x!quant.uniform<u8:f32, 0.037564418067230126:163>>, tensor<3x5x!quant.uniform<u8:f32, 0.0062823070315864236:127>>) -> tensor<300x5x!quant.uniform<i8:f32, 0.0629921259842528:-1>>
  %4 = "quant.stats"(%3) {layerStats: dense<tensor<2xf32>, [-8.000000e+00, 8.000000e+00]>} : (tensor<300x5x!quant.uniform<i8:f32, 0.0629921259842528:-1>>) -> tensor<300x5x!quant.uniform<i8:f32, 0.0629921259842528:-1>>
  %5 = "quant.dcast"(%4) : (tensor<300x5x!quant.uniform<i8:f32, 0.0629921259842528:-1>>) -> tensor<300x5xf32>
  return %5 : tensor<300x5xf32>
}

func @conv2d_relu(%arg0: tensor<300x3xf32>) -> tensor<300x5xf32> {
  %0 = "quant.qcast"(%arg0) : (tensor<300x3xf32>) -> tensor<300x3x!quant.uniform<u8:f32, 0.037564418067230126:163>>
  %1 = "quant.stats"(%0) {layerStats: dense<tensor<2xf32>, [-6.123000e+00, 3.450000e+00]>} : (tensor<300x3x!quant.uniform<u8:f32, 0.037564418067230126:163>>) -> tensor<300x3x!quant.uniform<u8:f32, 0.037564418067230126:163>>
  %cst = constant  {name: "constant.35"} dense<tensor<3x5xf32>, [[-1.060230e-01, 1.215050e-01, 8.002390e-01, -7.688850e-01, 0.0966112986], [6.890140e-01, -4.070560e-01, -0.797852993, 3.789250e-03, -2.088810e-01], [-6.085290e-01, 2.766170e-02, 2.685570e-01, 5.774010e-01, -4.284370e-01]]>
  %2 = "quant.qcast"(%cst) : (tensor<3x5xf32>) -> tensor<3x5x!quant.uniform<u8:f32, 0.0062823070315864236:127>>
  %3 = "fxpmath.real_conv2d_relu"(%1, %2) : (tensor<300x3x!quant.uniform<u8:f32, 0.037564418067230126:163>>, tensor<3x5x!quant.uniform<u8:f32, 0.0062823070315864236:127>>) -> tensor<300x5xf32>
  return %3 : tensor<300x5xf32>
}

func @conv2d_relu_requantize(%arg0: tensor<300x3xf32>) -> tensor<300x5xf32> {
  %0 = "quant.qcast"(%arg0) : (tensor<300x3xf32>) -> tensor<300x3x!quant.uniform<u8:f32, 0.037564418067230126:163>>
  %1 = "quant.stats"(%0) {layerStats: dense<tensor<2xf32>, [-6.123000e+00, 3.450000e+00]>} : (tensor<300x3x!quant.uniform<u8:f32, 0.037564418067230126:163>>) -> tensor<300x3x!quant.uniform<u8:f32, 0.037564418067230126:163>>
  %cst = constant  {name: "constant.35"} dense<tensor<3x5xf32>, [[-1.060230e-01, 1.215050e-01, 8.002390e-01, -7.688850e-01, 0.0966112986], [6.890140e-01, -4.070560e-01, -0.797852993, 3.789250e-03, -2.088810e-01], [-6.085290e-01, 2.766170e-02, 2.685570e-01, 5.774010e-01, -4.284370e-01]]>
  %2 = "quant.qcast"(%cst) : (tensor<3x5xf32>) -> tensor<3x5x!quant.uniform<u8:f32, 0.0062823070315864236:127>>
  %3 = "fxpmath.real_conv2d_relu_requantize"(%1, %2) : (tensor<300x3x!quant.uniform<u8:f32, 0.037564418067230126:163>>, tensor<3x5x!quant.uniform<u8:f32, 0.0062823070315864236:127>>) -> tensor<300x5x!quant.uniform<i8:f32, 0.0629921259842528:-1>>
  %4 = "quant.stats"(%3) {layerStats: dense<tensor<2xf32>, [-8.000000e+00, 8.000000e+00]>} : (tensor<300x5x!quant.uniform<i8:f32, 0.0629921259842528:-1>>) -> tensor<300x5x!quant.uniform<i8:f32, 0.0629921259842528:-1>>
  %5 = "quant.dcast"(%4) : (tensor<300x5x!quant.uniform<i8:f32, 0.0629921259842528:-1>>) -> tensor<300x5xf32>
  return %5 : tensor<300x5xf32>
}

func @conv2d_bias(%arg0: tensor<300x3xf32>) -> tensor<300x5xf32> {
  %0 = "quant.qcast"(%arg0) : (tensor<300x3xf32>) -> tensor<300x3x!quant.uniform<u8:f32, 0.037564418067230126:163>>
  %1 = "quant.stats"(%0) {layerStats: dense<tensor<2xf32>, [-6.123000e+00, 3.450000e+00]>} : (tensor<300x3x!quant.uniform<u8:f32, 0.037564418067230126:163>>) -> tensor<300x3x!quant.uniform<u8:f32, 0.037564418067230126:163>>
  %cst = constant  {name: "constant.35"} dense<tensor<3x5xf32>, [[-1.060230e-01, 1.215050e-01, 8.002390e-01, -7.688850e-01, 0.0966112986], [6.890140e-01, -4.070560e-01, -0.797852993, 3.789250e-03, -2.088810e-01], [-6.085290e-01, 2.766170e-02, 2.685570e-01, 5.774010e-01, -4.284370e-01]]>
  %2 = "quant.qcast"(%cst) : (tensor<3x5xf32>) -> tensor<3x5x!quant.uniform<u8:f32, 0.0062823070315864236:127>>
  %cst_0 = constant  {name: "constant.37"} dense<tensor<5xf32>, [1.000000e+00, 2.000000e+00, 3.000000e+00, 4.000000e+00, 5.000000e+00]>
  %3 = "fxpmath.real_conv2d_bias"(%1, %2, %cst_0) : (tensor<300x3x!quant.uniform<u8:f32, 0.037564418067230126:163>>, tensor<3x5x!quant.uniform<u8:f32, 0.0062823070315864236:127>>, tensor<5xf32>) -> tensor<300x5xf32>
  return %3 : tensor<300x5xf32>
}

func @conv2d_bias_requantize(%arg0: tensor<300x3xf32>) -> tensor<300x5xf32> {
  %0 = "quant.qcast"(%arg0) : (tensor<300x3xf32>) -> tensor<300x3x!quant.uniform<u8:f32, 0.037564418067230126:163>>
  %1 = "quant.stats"(%0) {layerStats: dense<tensor<2xf32>, [-6.123000e+00, 3.450000e+00]>} : (tensor<300x3x!quant.uniform<u8:f32, 0.037564418067230126:163>>) -> tensor<300x3x!quant.uniform<u8:f32, 0.037564418067230126:163>>
  %cst = constant  {name: "constant.35"} dense<tensor<3x5xf32>, [[-1.060230e-01, 1.215050e-01, 8.002390e-01, -7.688850e-01, 0.0966112986], [6.890140e-01, -4.070560e-01, -0.797852993, 3.789250e-03, -2.088810e-01], [-6.085290e-01, 2.766170e-02, 2.685570e-01, 5.774010e-01, -4.284370e-01]]>
  %2 = "quant.qcast"(%cst) : (tensor<3x5xf32>) -> tensor<3x5x!quant.uniform<u8:f32, 0.0062823070315864236:127>>
  %cst_0 = constant  {name: "constant.37"} dense<tensor<5xf32>, [1.000000e+00, 2.000000e+00, 3.000000e+00, 4.000000e+00, 5.000000e+00]>
  %3 = "quant.qcast"(%cst_0) : (tensor<5xf32>) -> tensor<5x!quant.uniform<i32:f32, 0.0629921259842528>>
  %4 = "fxpmath.real_conv2d_bias_requantize"(%1, %2, %3) : (tensor<300x3x!quant.uniform<u8:f32, 0.037564418067230126:163>>, tensor<3x5x!quant.uniform<u8:f32, 0.0062823070315864236:127>>, tensor<5x!quant.uniform<i32:f32, 0.0629921259842528>>) -> tensor<300x5x!quant.uniform<i8:f32, 0.0629921259842528:-1>>
  %5 = "quant.stats"(%4) {layerStats: dense<tensor<2xf32>, [-8.000000e+00, 8.000000e+00]>} : (tensor<300x5x!quant.uniform<i8:f32, 0.0629921259842528:-1>>) -> tensor<300x5x!quant.uniform<i8:f32, 0.0629921259842528:-1>>
  %6 = "quant.dcast"(%5) : (tensor<300x5x!quant.uniform<i8:f32, 0.0629921259842528:-1>>) -> tensor<300x5xf32>
  return %6 : tensor<300x5xf32>
}

func @conv2d_bias_relu(%arg0: tensor<300x3xf32>) -> tensor<300x5xf32> {
  %0 = "quant.qcast"(%arg0) : (tensor<300x3xf32>) -> tensor<300x3x!quant.uniform<u8:f32, 0.037564418067230126:163>>
  %1 = "quant.stats"(%0) {layerStats: dense<tensor<2xf32>, [-6.123000e+00, 3.450000e+00]>} : (tensor<300x3x!quant.uniform<u8:f32, 0.037564418067230126:163>>) -> tensor<300x3x!quant.uniform<u8:f32, 0.037564418067230126:163>>
  %cst = constant  {name: "constant.35"} dense<tensor<3x5xf32>, [[-1.060230e-01, 1.215050e-01, 8.002390e-01, -7.688850e-01, 0.0966112986], [6.890140e-01, -4.070560e-01, -0.797852993, 3.789250e-03, -2.088810e-01], [-6.085290e-01, 2.766170e-02, 2.685570e-01, 5.774010e-01, -4.284370e-01]]>
  %2 = "quant.qcast"(%cst) : (tensor<3x5xf32>) -> tensor<3x5x!quant.uniform<u8:f32, 0.0062823070315864236:127>>
  %cst_0 = constant  {name: "constant.37"} dense<tensor<5xf32>, [1.000000e+00, 2.000000e+00, 3.000000e+00, 4.000000e+00, 5.000000e+00]>
  %3 = "fxpmath.real_conv2d_bias_relu"(%1, %2, %cst_0) : (tensor<300x3x!quant.uniform<u8:f32, 0.037564418067230126:163>>, tensor<3x5x!quant.uniform<u8:f32, 0.0062823070315864236:127>>, tensor<5xf32>) -> tensor<300x5xf32>
  return %3 : tensor<300x5xf32>
}

func @conv2d_bias_relu_requantize(%arg0: tensor<300x3xf32>) -> tensor<300x5xf32> {
  %0 = "quant.qcast"(%arg0) : (tensor<300x3xf32>) -> tensor<300x3x!quant.uniform<u8:f32, 0.037564418067230126:163>>
  %1 = "quant.stats"(%0) {layerStats: dense<tensor<2xf32>, [-6.123000e+00, 3.450000e+00]>} : (tensor<300x3x!quant.uniform<u8:f32, 0.037564418067230126:163>>) -> tensor<300x3x!quant.uniform<u8:f32, 0.037564418067230126:163>>
  %cst = constant  {name: "constant.35"} dense<tensor<3x5xf32>, [[-1.060230e-01, 1.215050e-01, 8.002390e-01, -7.688850e-01, 0.0966112986], [6.890140e-01, -4.070560e-01, -0.797852993, 3.789250e-03, -2.088810e-01], [-6.085290e-01, 2.766170e-02, 2.685570e-01, 5.774010e-01, -4.284370e-01]]>
  %2 = "quant.qcast"(%cst) : (tensor<3x5xf32>) -> tensor<3x5x!quant.uniform<u8:f32, 0.0062823070315864236:127>>
  %cst_0 = constant  {name: "constant.37"} dense<tensor<5xf32>, [1.000000e+00, 2.000000e+00, 3.000000e+00, 4.000000e+00, 5.000000e+00]>
  %3 = "quant.qcast"(%cst_0) : (tensor<5xf32>) -> tensor<5x!quant.uniform<i32:f32, 0.0629921259842528>>
  %4 = "fxpmath.real_conv2d_bias_relu_requantize"(%1, %2, %3) : (tensor<300x3x!quant.uniform<u8:f32, 0.037564418067230126:163>>, tensor<3x5x!quant.uniform<u8:f32, 0.0062823070315864236:127>>, tensor<5x!quant.uniform<i32:f32, 0.0629921259842528>>) -> tensor<300x5x!quant.uniform<u8:f32, 0.0629921259842528:127>>
  %5 = "quant.stats"(%4) {layerStats: dense<tensor<2xf32>, [-8.000000e+00, 8.000000e+00]>} : (tensor<300x5x!quant.uniform<u8:f32, 0.0629921259842528:127>>) -> tensor<300x5x!quant.uniform<u8:f32, 0.0629921259842528:127>>
  %6 = "quant.dcast"(%5) : (tensor<300x5x!quant.uniform<u8:f32, 0.0629921259842528:127>>) -> tensor<300x5xf32>
  return %6 : tensor<300x5xf32>
}

func @conv2d_bias_sum_relu(%arg0: tensor<300x3xf32>, %arg1: tensor<300x5xf32>) -> tensor<300x5xf32> {
  %0 = "quant.qcast"(%arg0) : (tensor<300x3xf32>) -> tensor<300x3x!quant.uniform<u8:f32, 0.037564418067230126:163>>
  %1 = "quant.stats"(%0) {layerStats: dense<tensor<2xf32>, [-6.123000e+00, 3.450000e+00]>} : (tensor<300x3x!quant.uniform<u8:f32, 0.037564418067230126:163>>) -> tensor<300x3x!quant.uniform<u8:f32, 0.037564418067230126:163>>
  %2 = "quant.qcast"(%arg1) : (tensor<300x5xf32>) -> tensor<300x5x!quant.uniform<u8:f32, 0.037564418067230126:163>>
  %3 = "quant.stats"(%2) {layerStats: dense<tensor<2xf32>, [-6.123000e+00, 3.450000e+00]>} : (tensor<300x5x!quant.uniform<u8:f32, 0.037564418067230126:163>>) -> tensor<300x5x!quant.uniform<u8:f32, 0.037564418067230126:163>>
  %cst = constant  {name: "constant.35"} dense<tensor<3x5xf32>, [[-1.060230e-01, 1.215050e-01, 8.002390e-01, -7.688850e-01, 0.0966112986], [6.890140e-01, -4.070560e-01, -0.797852993, 3.789250e-03, -2.088810e-01], [-6.085290e-01, 2.766170e-02, 2.685570e-01, 5.774010e-01, -4.284370e-01]]>
  %4 = "quant.qcast"(%cst) : (tensor<3x5xf32>) -> tensor<3x5x!quant.uniform<u8:f32, 0.0062823070315864236:127>>
  %cst_0 = constant  {name: "constant.37"} dense<tensor<5xf32>, [1.000000e+00, 2.000000e+00, 3.000000e+00, 4.000000e+00, 5.000000e+00]>
  %cst_1 = constant  {name: "constant.38"} dense<tensor<5xf32>, [1.000000e+00, 2.000000e+00, 3.000000e+00, 4.000000e+00, 5.000000e+00]>
  %5 = "fxpmath.real_conv2d_bias_sum_relu"(%1, %4, %cst_0, %3) : (tensor<300x3x!quant.uniform<u8:f32, 0.037564418067230126:163>>, tensor<3x5x!quant.uniform<u8:f32, 0.0062823070315864236:127>>, tensor<5xf32>, tensor<300x5x!quant.uniform<u8:f32, 0.037564418067230126:163>>) -> tensor<300x5xf32>
  return %5 : tensor<300x5xf32>
}

func @conv2d_bias_sum_relu_requantize(%arg0: tensor<300x3xf32>, %arg1: tensor<300x5xf32>) -> tensor<300x5xf32> {
  %0 = "quant.qcast"(%arg0) : (tensor<300x3xf32>) -> tensor<300x3x!quant.uniform<u8:f32, 0.037564418067230126:163>>
  %1 = "quant.stats"(%0) {layerStats: dense<tensor<2xf32>, [-6.123000e+00, 3.450000e+00]>} : (tensor<300x3x!quant.uniform<u8:f32, 0.037564418067230126:163>>) -> tensor<300x3x!quant.uniform<u8:f32, 0.037564418067230126:163>>
  %2 = "quant.qcast"(%arg1) : (tensor<300x5xf32>) -> tensor<300x5x!quant.uniform<u8:f32, 0.037564418067230126:163>>
  %3 = "quant.stats"(%2) {layerStats: dense<tensor<2xf32>, [-6.123000e+00, 3.450000e+00]>} : (tensor<300x5x!quant.uniform<u8:f32, 0.037564418067230126:163>>) -> tensor<300x5x!quant.uniform<u8:f32, 0.037564418067230126:163>>
  %cst = constant  {name: "constant.35"} dense<tensor<3x5xf32>, [[-1.060230e-01, 1.215050e-01, 8.002390e-01, -7.688850e-01, 0.0966112986], [6.890140e-01, -4.070560e-01, -0.797852993, 3.789250e-03, -2.088810e-01], [-6.085290e-01, 2.766170e-02, 2.685570e-01, 5.774010e-01, -4.284370e-01]]>
  %4 = "quant.qcast"(%cst) : (tensor<3x5xf32>) -> tensor<3x5x!quant.uniform<u8:f32, 0.0062823070315864236:127>>
  %cst_0 = constant  {name: "constant.37"} dense<tensor<5xf32>, [1.000000e+00, 2.000000e+00, 3.000000e+00, 4.000000e+00, 5.000000e+00]>
  %5 = "quant.qcast"(%cst_0) : (tensor<5xf32>) -> tensor<5x!quant.uniform<i32:f32, 0.0629921259842528>>
  %cst_1 = constant  {name: "constant.38"} dense<tensor<5xf32>, [1.000000e+00, 2.000000e+00, 3.000000e+00, 4.000000e+00, 5.000000e+00]>
  %6 = "fxpmath.real_conv2d_bias_sum_relu_requantize"(%1, %4, %5, %3) : (tensor<300x3x!quant.uniform<u8:f32, 0.037564418067230126:163>>, tensor<3x5x!quant.uniform<u8:f32, 0.0062823070315864236:127>>, tensor<5x!quant.uniform<i32:f32, 0.0629921259842528>>, tensor<300x5x!quant.uniform<u8:f32, 0.037564418067230126:163>>) -> tensor<300x5x!quant.uniform<u8:f32, 0.0629921259842528:127>>
  %7 = "quant.stats"(%6) {layerStats: dense<tensor<2xf32>, [-8.000000e+00, 8.000000e+00]>} : (tensor<300x5x!quant.uniform<u8:f32, 0.0629921259842528:127>>) -> tensor<300x5x!quant.uniform<u8:f32, 0.0629921259842528:127>>
  %8 = "quant.dcast"(%7) : (tensor<300x5x!quant.uniform<u8:f32, 0.0629921259842528:127>>) -> tensor<300x5xf32>
  %9 = "quant.dcast"(%6) : (tensor<300x5x!quant.uniform<u8:f32, 0.0629921259842528:127>>) -> tensor<300x5xf32>
  return %9 : tensor<300x5xf32>
}

*** IR Dump After {anonymous}::ConvertConstPass ***
func @conv2d(%arg0: tensor<300x3xf32>) -> tensor<300x5xf32> {
  %cst = constant dense<tensor<3x5xi8>, [[110, -110, -2, 5, -114], [-19, 62, 0, -128, 94], [30, -125, -86, -37, 59]]>
  %0 = "quant.qcast"(%arg0) : (tensor<300x3xf32>) -> tensor<300x3x!quant.uniform<u8:f32, 0.037564418067230126:163>>
  %1 = "quant.stats"(%0) {layerStats: dense<tensor<2xf32>, [-6.123000e+00, 3.450000e+00]>} : (tensor<300x3x!quant.uniform<u8:f32, 0.037564418067230126:163>>) -> tensor<300x3x!quant.uniform<u8:f32, 0.037564418067230126:163>>
  %2 = "quant.scast"(%cst) : (tensor<3x5xi8>) -> tensor<3x5x!quant.uniform<u8:f32, 0.0062823070315864236:127>>
  %3 = "fxpmath.real_conv2d"(%1, %2) : (tensor<300x3x!quant.uniform<u8:f32, 0.037564418067230126:163>>, tensor<3x5x!quant.uniform<u8:f32, 0.0062823070315864236:127>>) -> tensor<300x5xf32>
  return %3 : tensor<300x5xf32>
}

*** IR Dump After {anonymous}::FunctionVerifier ***
func @conv2d(%arg0: tensor<300x3xf32>) -> tensor<300x5xf32> {
  %cst = constant dense<tensor<3x5xi8>, [[110, -110, -2, 5, -114], [-19, 62, 0, -128, 94], [30, -125, -86, -37, 59]]>
  %0 = "quant.qcast"(%arg0) : (tensor<300x3xf32>) -> tensor<300x3x!quant.uniform<u8:f32, 0.037564418067230126:163>>
  %1 = "quant.stats"(%0) {layerStats: dense<tensor<2xf32>, [-6.123000e+00, 3.450000e+00]>} : (tensor<300x3x!quant.uniform<u8:f32, 0.037564418067230126:163>>) -> tensor<300x3x!quant.uniform<u8:f32, 0.037564418067230126:163>>
  %2 = "quant.scast"(%cst) : (tensor<3x5xi8>) -> tensor<3x5x!quant.uniform<u8:f32, 0.0062823070315864236:127>>
  %3 = "fxpmath.real_conv2d"(%1, %2) : (tensor<300x3x!quant.uniform<u8:f32, 0.037564418067230126:163>>, tensor<3x5x!quant.uniform<u8:f32, 0.0062823070315864236:127>>) -> tensor<300x5xf32>
  return %3 : tensor<300x5xf32>
}

*** IR Dump After {anonymous}::RemoveInstrumentationPass ***
func @conv2d(%arg0: tensor<300x3xf32>) -> tensor<300x5xf32> {
  %cst = constant dense<tensor<3x5xi8>, [[110, -110, -2, 5, -114], [-19, 62, 0, -128, 94], [30, -125, -86, -37, 59]]>
  %0 = "quant.qcast"(%arg0) : (tensor<300x3xf32>) -> tensor<300x3x!quant.uniform<u8:f32, 0.037564418067230126:163>>
  %1 = "quant.scast"(%cst) : (tensor<3x5xi8>) -> tensor<3x5x!quant.uniform<u8:f32, 0.0062823070315864236:127>>
  %2 = "fxpmath.real_conv2d"(%0, %1) : (tensor<300x3x!quant.uniform<u8:f32, 0.037564418067230126:163>>, tensor<3x5x!quant.uniform<u8:f32, 0.0062823070315864236:127>>) -> tensor<300x5xf32>
  return %2 : tensor<300x5xf32>
}

*** IR Dump After {anonymous}::FunctionVerifier ***
func @conv2d(%arg0: tensor<300x3xf32>) -> tensor<300x5xf32> {
  %cst = constant dense<tensor<3x5xi8>, [[110, -110, -2, 5, -114], [-19, 62, 0, -128, 94], [30, -125, -86, -37, 59]]>
  %0 = "quant.qcast"(%arg0) : (tensor<300x3xf32>) -> tensor<300x3x!quant.uniform<u8:f32, 0.037564418067230126:163>>
  %1 = "quant.scast"(%cst) : (tensor<3x5xi8>) -> tensor<3x5x!quant.uniform<u8:f32, 0.0062823070315864236:127>>
  %2 = "fxpmath.real_conv2d"(%0, %1) : (tensor<300x3x!quant.uniform<u8:f32, 0.037564418067230126:163>>, tensor<3x5x!quant.uniform<u8:f32, 0.0062823070315864236:127>>) -> tensor<300x5xf32>
  return %2 : tensor<300x5xf32>
}

*** IR Dump After {anonymous}::Canonicalizer ***
func @conv2d(%arg0: tensor<300x3xf32>) -> tensor<300x5xf32> {
  %cst = constant dense<tensor<3x5xi8>, [[110, -110, -2, 5, -114], [-19, 62, 0, -128, 94], [30, -125, -86, -37, 59]]>
  %0 = "quant.qcast"(%arg0) : (tensor<300x3xf32>) -> tensor<300x3x!quant.uniform<u8:f32, 0.037564418067230126:163>>
  %1 = "quant.scast"(%cst) : (tensor<3x5xi8>) -> tensor<3x5x!quant.uniform<u8:f32, 0.0062823070315864236:127>>
  %2 = "fxpmath.real_conv2d"(%0, %1) : (tensor<300x3x!quant.uniform<u8:f32, 0.037564418067230126:163>>, tensor<3x5x!quant.uniform<u8:f32, 0.0062823070315864236:127>>) -> tensor<300x5xf32>
  return %2 : tensor<300x5xf32>
}

*** IR Dump After {anonymous}::ConvertConstPass ***
func @conv2d_requantize(%arg0: tensor<300x3xf32>) -> tensor<300x5xf32> {
  %cst = constant dense<tensor<3x5xi8>, [[110, -110, -2, 5, -114], [-19, 62, 0, -128, 94], [30, -125, -86, -37, 59]]>
  %0 = "quant.qcast"(%arg0) : (tensor<300x3xf32>) -> tensor<300x3x!quant.uniform<u8:f32, 0.037564418067230126:163>>
  %1 = "quant.stats"(%0) {layerStats: dense<tensor<2xf32>, [-6.123000e+00, 3.450000e+00]>} : (tensor<300x3x!quant.uniform<u8:f32, 0.037564418067230126:163>>) -> tensor<300x3x!quant.uniform<u8:f32, 0.037564418067230126:163>>
  %2 = "quant.scast"(%cst) : (tensor<3x5xi8>) -> tensor<3x5x!quant.uniform<u8:f32, 0.0062823070315864236:127>>
  %3 = "fxpmath.real_conv2d_requantize"(%1, %2) : (tensor<300x3x!quant.uniform<u8:f32, 0.037564418067230126:163>>, tensor<3x5x!quant.uniform<u8:f32, 0.0062823070315864236:127>>) -> tensor<300x5x!quant.uniform<i8:f32, 0.0629921259842528:-1>>
  %4 = "quant.stats"(%3) {layerStats: dense<tensor<2xf32>, [-8.000000e+00, 8.000000e+00]>} : (tensor<300x5x!quant.uniform<i8:f32, 0.0629921259842528:-1>>) -> tensor<300x5x!quant.uniform<i8:f32, 0.0629921259842528:-1>>
  %5 = "quant.dcast"(%4) : (tensor<300x5x!quant.uniform<i8:f32, 0.0629921259842528:-1>>) -> tensor<300x5xf32>
  return %5 : tensor<300x5xf32>
}

*** IR Dump After {anonymous}::FunctionVerifier ***
func @conv2d_requantize(%arg0: tensor<300x3xf32>) -> tensor<300x5xf32> {
  %cst = constant dense<tensor<3x5xi8>, [[110, -110, -2, 5, -114], [-19, 62, 0, -128, 94], [30, -125, -86, -37, 59]]>
  %0 = "quant.qcast"(%arg0) : (tensor<300x3xf32>) -> tensor<300x3x!quant.uniform<u8:f32, 0.037564418067230126:163>>
  %1 = "quant.stats"(%0) {layerStats: dense<tensor<2xf32>, [-6.123000e+00, 3.450000e+00]>} : (tensor<300x3x!quant.uniform<u8:f32, 0.037564418067230126:163>>) -> tensor<300x3x!quant.uniform<u8:f32, 0.037564418067230126:163>>
  %2 = "quant.scast"(%cst) : (tensor<3x5xi8>) -> tensor<3x5x!quant.uniform<u8:f32, 0.0062823070315864236:127>>
  %3 = "fxpmath.real_conv2d_requantize"(%1, %2) : (tensor<300x3x!quant.uniform<u8:f32, 0.037564418067230126:163>>, tensor<3x5x!quant.uniform<u8:f32, 0.0062823070315864236:127>>) -> tensor<300x5x!quant.uniform<i8:f32, 0.0629921259842528:-1>>
  %4 = "quant.stats"(%3) {layerStats: dense<tensor<2xf32>, [-8.000000e+00, 8.000000e+00]>} : (tensor<300x5x!quant.uniform<i8:f32, 0.0629921259842528:-1>>) -> tensor<300x5x!quant.uniform<i8:f32, 0.0629921259842528:-1>>
  %5 = "quant.dcast"(%4) : (tensor<300x5x!quant.uniform<i8:f32, 0.0629921259842528:-1>>) -> tensor<300x5xf32>
  return %5 : tensor<300x5xf32>
}

*** IR Dump After {anonymous}::ConvertConstPass ***
func @conv2d_relu_requantize(%arg0: tensor<300x3xf32>) -> tensor<300x5xf32> {
  %cst = constant dense<tensor<3x5xi8>, [[110, -110, -2, 5, -114], [-19, 62, 0, -128, 94], [30, -125, -86, -37, 59]]>
  %0 = "quant.qcast"(%arg0) : (tensor<300x3xf32>) -> tensor<300x3x!quant.uniform<u8:f32, 0.037564418067230126:163>>
  %1 = "quant.stats"(%0) {layerStats: dense<tensor<2xf32>, [-6.123000e+00, 3.450000e+00]>} : (tensor<300x3x!quant.uniform<u8:f32, 0.037564418067230126:163>>) -> tensor<300x3x!quant.uniform<u8:f32, 0.037564418067230126:163>>
  %2 = "quant.scast"(%cst) : (tensor<3x5xi8>) -> tensor<3x5x!quant.uniform<u8:f32, 0.0062823070315864236:127>>
  %3 = "fxpmath.real_conv2d_relu_requantize"(%1, %2) : (tensor<300x3x!quant.uniform<u8:f32, 0.037564418067230126:163>>, tensor<3x5x!quant.uniform<u8:f32, 0.0062823070315864236:127>>) -> tensor<300x5x!quant.uniform<i8:f32, 0.0629921259842528:-1>>
  %4 = "quant.stats"(%3) {layerStats: dense<tensor<2xf32>, [-8.000000e+00, 8.000000e+00]>} : (tensor<300x5x!quant.uniform<i8:f32, 0.0629921259842528:-1>>) -> tensor<300x5x!quant.uniform<i8:f32, 0.0629921259842528:-1>>
  %5 = "quant.dcast"(%4) : (tensor<300x5x!quant.uniform<i8:f32, 0.0629921259842528:-1>>) -> tensor<300x5xf32>
  return %5 : tensor<300x5xf32>
}

*** IR Dump After {anonymous}::ConvertConstPass ***
func @conv2d_bias(%arg0: tensor<300x3xf32>) -> tensor<300x5xf32> {
  %cst = constant dense<tensor<3x5xi8>, [[110, -110, -2, 5, -114], [-19, 62, 0, -128, 94], [30, -125, -86, -37, 59]]>
  %cst_0 = constant  {name: "constant.37"} dense<tensor<5xf32>, [1.000000e+00, 2.000000e+00, 3.000000e+00, 4.000000e+00, 5.000000e+00]>
  %0 = "quant.qcast"(%arg0) : (tensor<300x3xf32>) -> tensor<300x3x!quant.uniform<u8:f32, 0.037564418067230126:163>>
  %1 = "quant.stats"(%0) {layerStats: dense<tensor<2xf32>, [-6.123000e+00, 3.450000e+00]>} : (tensor<300x3x!quant.uniform<u8:f32, 0.037564418067230126:163>>) -> tensor<300x3x!quant.uniform<u8:f32, 0.037564418067230126:163>>
  %2 = "quant.scast"(%cst) : (tensor<3x5xi8>) -> tensor<3x5x!quant.uniform<u8:f32, 0.0062823070315864236:127>>
  %3 = "fxpmath.real_conv2d_bias"(%1, %2, %cst_0) : (tensor<300x3x!quant.uniform<u8:f32, 0.037564418067230126:163>>, tensor<3x5x!quant.uniform<u8:f32, 0.0062823070315864236:127>>, tensor<5xf32>) -> tensor<300x5xf32>
  return %3 : tensor<300x5xf32>
}

*** IR Dump After {anonymous}::FunctionVerifier ***
func @conv2d_bias(%arg0: tensor<300x3xf32>) -> tensor<300x5xf32> {
  %cst = constant dense<tensor<3x5xi8>, [[110, -110, -2, 5, -114], [-19, 62, 0, -128, 94], [30, -125, -86, -37, 59]]>
  %cst_0 = constant  {name: "constant.37"} dense<tensor<5xf32>, [1.000000e+00, 2.000000e+00, 3.000000e+00, 4.000000e+00, 5.000000e+00]>
  %0 = "quant.qcast"(%arg0) : (tensor<300x3xf32>) -> tensor<300x3x!quant.uniform<u8:f32, 0.037564418067230126:163>>
  %1 = "quant.stats"(%0) {layerStats: dense<tensor<2xf32>, [-6.123000e+00, 3.450000e+00]>} : (tensor<300x3x!quant.uniform<u8:f32, 0.037564418067230126:163>>) -> tensor<300x3x!quant.uniform<u8:f32, 0.037564418067230126:163>>
  %2 = "quant.scast"(%cst) : (tensor<3x5xi8>) -> tensor<3x5x!quant.uniform<u8:f32, 0.0062823070315864236:127>>
  %3 = "fxpmath.real_conv2d_bias"(%1, %2, %cst_0) : (tensor<300x3x!quant.uniform<u8:f32, 0.037564418067230126:163>>, tensor<3x5x!quant.uniform<u8:f32, 0.0062823070315864236:127>>, tensor<5xf32>) -> tensor<300x5xf32>
  return %3 : tensor<300x5xf32>
}

*** IR Dump After {anonymous}::ConvertConstPass ***
func @conv2d_bias_relu_requantize(%arg0: tensor<300x3xf32>) -> tensor<300x5xf32> {
  %cst = constant dense<tensor<3x5xi8>, [[110, -110, -2, 5, -114], [-19, 62, 0, -128, 94], [30, -125, -86, -37, 59]]>
  %cst_0 = constant dense<tensor<5xi32>, [16, 32, 48, 63, 79]>
  %0 = "quant.qcast"(%arg0) : (tensor<300x3xf32>) -> tensor<300x3x!quant.uniform<u8:f32, 0.037564418067230126:163>>
  %1 = "quant.stats"(%0) {layerStats: dense<tensor<2xf32>, [-6.123000e+00, 3.450000e+00]>} : (tensor<300x3x!quant.uniform<u8:f32, 0.037564418067230126:163>>) -> tensor<300x3x!quant.uniform<u8:f32, 0.037564418067230126:163>>
  %2 = "quant.scast"(%cst) : (tensor<3x5xi8>) -> tensor<3x5x!quant.uniform<u8:f32, 0.0062823070315864236:127>>
  %3 = "quant.scast"(%cst_0) : (tensor<5xi32>) -> tensor<5x!quant.uniform<i32:f32, 0.0629921259842528>>
  %4 = "fxpmath.real_conv2d_bias_relu_requantize"(%1, %2, %3) : (tensor<300x3x!quant.uniform<u8:f32, 0.037564418067230126:163>>, tensor<3x5x!quant.uniform<u8:f32, 0.0062823070315864236:127>>, tensor<5x!quant.uniform<i32:f32, 0.0629921259842528>>) -> tensor<300x5x!quant.uniform<u8:f32, 0.0629921259842528:127>>
  %5 = "quant.stats"(%4) {layerStats: dense<tensor<2xf32>, [-8.000000e+00, 8.000000e+00]>} : (tensor<300x5x!quant.uniform<u8:f32, 0.0629921259842528:127>>) -> tensor<300x5x!quant.uniform<u8:f32, 0.0629921259842528:127>>
  %6 = "quant.dcast"(%5) : (tensor<300x5x!quant.uniform<u8:f32, 0.0629921259842528:127>>) -> tensor<300x5xf32>
  return %6 : tensor<300x5xf32>
}

*** IR Dump After {anonymous}::FunctionVerifier ***
func @conv2d(%arg0: tensor<300x3xf32>) -> tensor<300x5xf32> {
  %cst = constant dense<tensor<3x5xi8>, [[110, -110, -2, 5, -114], [-19, 62, 0, -128, 94], [30, -125, -86, -37, 59]]>
  %0 = "quant.qcast"(%arg0) : (tensor<300x3xf32>) -> tensor<300x3x!quant.uniform<u8:f32, 0.037564418067230126:163>>
  %1 = "quant.scast"(%cst) : (tensor<3x5xi8>) -> tensor<3x5x!quant.uniform<u8:f32, 0.0062823070315864236:127>>
  %2 = "fxpmath.real_conv2d"(%0, %1) : (tensor<300x3x!quant.uniform<u8:f32, 0.037564418067230126:163>>, tensor<3x5x!quant.uniform<u8:f32, 0.0062823070315864236:127>>) -> tensor<300x5xf32>
  return %2 : tensor<300x5xf32>
}

*** IR Dump After {anonymous}::ConvertConstPass ***
func @conv2d_relu(%arg0: tensor<300x3xf32>) -> tensor<300x5xf32> {
  %cst = constant dense<tensor<3x5xi8>, [[110, -110, -2, 5, -114], [-19, 62, 0, -128, 94], [30, -125, -86, -37, 59]]>
  %0 = "quant.qcast"(%arg0) : (tensor<300x3xf32>) -> tensor<300x3x!quant.uniform<u8:f32, 0.037564418067230126:163>>
  %1 = "quant.stats"(%0) {layerStats: dense<tensor<2xf32>, [-6.123000e+00, 3.450000e+00]>} : (tensor<300x3x!quant.uniform<u8:f32, 0.037564418067230126:163>>) -> tensor<300x3x!quant.uniform<u8:f32, 0.037564418067230126:163>>
  %2 = "quant.scast"(%cst) : (tensor<3x5xi8>) -> tensor<3x5x!quant.uniform<u8:f32, 0.0062823070315864236:127>>
  %3 = "fxpmath.real_conv2d_relu"(%1, %2) : (tensor<300x3x!quant.uniform<u8:f32, 0.037564418067230126:163>>, tensor<3x5x!quant.uniform<u8:f32, 0.0062823070315864236:127>>) -> tensor<300x5xf32>
  return %3 : tensor<300x5xf32>
}

*** IR Dump After {anonymous}::ConvertConstPass ***
func @conv2d_bias_sum_relu_requantize(%arg0: tensor<300x3xf32>, %arg1: tensor<300x5xf32>) -> tensor<300x5xf32> {
  %cst = constant dense<tensor<3x5xi8>, [[110, -110, -2, 5, -114], [-19, 62, 0, -128, 94], [30, -125, -86, -37, 59]]>
  %cst_0 = constant dense<tensor<5xi32>, [16, 32, 48, 63, 79]>
  %0 = "quant.qcast"(%arg0) : (tensor<300x3xf32>) -> tensor<300x3x!quant.uniform<u8:f32, 0.037564418067230126:163>>
  %1 = "quant.stats"(%0) {layerStats: dense<tensor<2xf32>, [-6.123000e+00, 3.450000e+00]>} : (tensor<300x3x!quant.uniform<u8:f32, 0.037564418067230126:163>>) -> tensor<300x3x!quant.uniform<u8:f32, 0.037564418067230126:163>>
  %2 = "quant.qcast"(%arg1) : (tensor<300x5xf32>) -> tensor<300x5x!quant.uniform<u8:f32, 0.037564418067230126:163>>
  %3 = "quant.stats"(%2) {layerStats: dense<tensor<2xf32>, [-6.123000e+00, 3.450000e+00]>} : (tensor<300x5x!quant.uniform<u8:f32, 0.037564418067230126:163>>) -> tensor<300x5x!quant.uniform<u8:f32, 0.037564418067230126:163>>
  %4 = "quant.scast"(%cst) : (tensor<3x5xi8>) -> tensor<3x5x!quant.uniform<u8:f32, 0.0062823070315864236:127>>
  %5 = "quant.scast"(%cst_0) : (tensor<5xi32>) -> tensor<5x!quant.uniform<i32:f32, 0.0629921259842528>>
  %6 = "fxpmath.real_conv2d_bias_sum_relu_requantize"(%1, %4, %5, %3) : (tensor<300x3x!quant.uniform<u8:f32, 0.037564418067230126:163>>, tensor<3x5x!quant.uniform<u8:f32, 0.0062823070315864236:127>>, tensor<5x!quant.uniform<i32:f32, 0.0629921259842528>>, tensor<300x5x!quant.uniform<u8:f32, 0.037564418067230126:163>>) -> tensor<300x5x!quant.uniform<u8:f32, 0.0629921259842528:127>>
  %7 = "quant.stats"(%6) {layerStats: dense<tensor<2xf32>, [-8.000000e+00, 8.000000e+00]>} : (tensor<300x5x!quant.uniform<u8:f32, 0.0629921259842528:127>>) -> tensor<300x5x!quant.uniform<u8:f32, 0.0629921259842528:127>>
  %8 = "quant.dcast"(%6) : (tensor<300x5x!quant.uniform<u8:f32, 0.0629921259842528:127>>) -> tensor<300x5xf32>
  return %8 : tensor<300x5xf32>
}

*** IR Dump After {anonymous}::FunctionVerifier ***
func @conv2d_bias_sum_relu_requantize(%arg0: tensor<300x3xf32>, %arg1: tensor<300x5xf32>) -> tensor<300x5xf32> {
  %cst = constant dense<tensor<3x5xi8>, [[110, -110, -2, 5, -114], [-19, 62, 0, -128, 94], [30, -125, -86, -37, 59]]>
  %cst_0 = constant dense<tensor<5xi32>, [16, 32, 48, 63, 79]>
  %0 = "quant.qcast"(%arg0) : (tensor<300x3xf32>) -> tensor<300x3x!quant.uniform<u8:f32, 0.037564418067230126:163>>
  %1 = "quant.stats"(%0) {layerStats: dense<tensor<2xf32>, [-6.123000e+00, 3.450000e+00]>} : (tensor<300x3x!quant.uniform<u8:f32, 0.037564418067230126:163>>) -> tensor<300x3x!quant.uniform<u8:f32, 0.037564418067230126:163>>
  %2 = "quant.qcast"(%arg1) : (tensor<300x5xf32>) -> tensor<300x5x!quant.uniform<u8:f32, 0.037564418067230126:163>>
  %3 = "quant.stats"(%2) {layerStats: dense<tensor<2xf32>, [-6.123000e+00, 3.450000e+00]>} : (tensor<300x5x!quant.uniform<u8:f32, 0.037564418067230126:163>>) -> tensor<300x5x!quant.uniform<u8:f32, 0.037564418067230126:163>>
  %4 = "quant.scast"(%cst) : (tensor<3x5xi8>) -> tensor<3x5x!quant.uniform<u8:f32, 0.0062823070315864236:127>>
  %5 = "quant.scast"(%cst_0) : (tensor<5xi32>) -> tensor<5x!quant.uniform<i32:f32, 0.0629921259842528>>
  %6 = "fxpmath.real_conv2d_bias_sum_relu_requantize"(%1, %4, %5, %3) : (tensor<300x3x!quant.uniform<u8:f32, 0.037564418067230126:163>>, tensor<3x5x!quant.uniform<u8:f32, 0.0062823070315864236:127>>, tensor<5x!quant.uniform<i32:f32, 0.0629921259842528>>, tensor<300x5x!quant.uniform<u8:f32, 0.037564418067230126:163>>) -> tensor<300x5x!quant.uniform<u8:f32, 0.0629921259842528:127>>
  %7 = "quant.stats"(%6) {layerStats: dense<tensor<2xf32>, [-8.000000e+00, 8.000000e+00]>} : (tensor<300x5x!quant.uniform<u8:f32, 0.0629921259842528:127>>) -> tensor<300x5x!quant.uniform<u8:f32, 0.0629921259842528:127>>
  %8 = "quant.dcast"(%6) : (tensor<300x5x!quant.uniform<u8:f32, 0.0629921259842528:127>>) -> tensor<300x5xf32>
  return %8 : tensor<300x5xf32>
}

*** IR Dump After {anonymous}::FunctionVerifier ***
func @conv2d_relu_requantize(%arg0: tensor<300x3xf32>) -> tensor<300x5xf32> {
  %cst = constant dense<tensor<3x5xi8>, [[110, -110, -2, 5, -114], [-19, 62, 0, -128, 94], [30, -125, -86, -37, 59]]>
  %0 = "quant.qcast"(%arg0) : (tensor<300x3xf32>) -> tensor<300x3x!quant.uniform<u8:f32, 0.037564418067230126:163>>
  %1 = "quant.stats"(%0) {layerStats: dense<tensor<2xf32>, [-6.123000e+00, 3.450000e+00]>} : (tensor<300x3x!quant.uniform<u8:f32, 0.037564418067230126:163>>) -> tensor<300x3x!quant.uniform<u8:f32, 0.037564418067230126:163>>
  %2 = "quant.scast"(%cst) : (tensor<3x5xi8>) -> tensor<3x5x!quant.uniform<u8:f32, 0.0062823070315864236:127>>
  %3 = "fxpmath.real_conv2d_relu_requantize"(%1, %2) : (tensor<300x3x!quant.uniform<u8:f32, 0.037564418067230126:163>>, tensor<3x5x!quant.uniform<u8:f32, 0.0062823070315864236:127>>) -> tensor<300x5x!quant.uniform<i8:f32, 0.0629921259842528:-1>>
  %4 = "quant.stats"(%3) {layerStats: dense<tensor<2xf32>, [-8.000000e+00, 8.000000e+00]>} : (tensor<300x5x!quant.uniform<i8:f32, 0.0629921259842528:-1>>) -> tensor<300x5x!quant.uniform<i8:f32, 0.0629921259842528:-1>>
  %5 = "quant.dcast"(%4) : (tensor<300x5x!quant.uniform<i8:f32, 0.0629921259842528:-1>>) -> tensor<300x5xf32>
  return %5 : tensor<300x5xf32>
}

*** IR Dump After {anonymous}::RemoveInstrumentationPass ***
func @conv2d_relu_requantize(%arg0: tensor<300x3xf32>) -> tensor<300x5xf32> {
  %cst = constant dense<tensor<3x5xi8>, [[110, -110, -2, 5, -114], [-19, 62, 0, -128, 94], [30, -125, -86, -37, 59]]>
  %0 = "quant.qcast"(%arg0) : (tensor<300x3xf32>) -> tensor<300x3x!quant.uniform<u8:f32, 0.037564418067230126:163>>
  %1 = "quant.scast"(%cst) : (tensor<3x5xi8>) -> tensor<3x5x!quant.uniform<u8:f32, 0.0062823070315864236:127>>
  %2 = "fxpmath.real_conv2d_relu_requantize"(%0, %1) : (tensor<300x3x!quant.uniform<u8:f32, 0.037564418067230126:163>>, tensor<3x5x!quant.uniform<u8:f32, 0.0062823070315864236:127>>) -> tensor<300x5x!quant.uniform<i8:f32, 0.0629921259842528:-1>>
  %3 = "quant.dcast"(%2) : (tensor<300x5x!quant.uniform<i8:f32, 0.0629921259842528:-1>>) -> tensor<300x5xf32>
  return %3 : tensor<300x5xf32>
}

*** IR Dump After {anonymous}::FunctionVerifier ***
func @conv2d_relu_requantize(%arg0: tensor<300x3xf32>) -> tensor<300x5xf32> {
  %cst = constant dense<tensor<3x5xi8>, [[110, -110, -2, 5, -114], [-19, 62, 0, -128, 94], [30, -125, -86, -37, 59]]>
  %0 = "quant.qcast"(%arg0) : (tensor<300x3xf32>) -> tensor<300x3x!quant.uniform<u8:f32, 0.037564418067230126:163>>
  %1 = "quant.scast"(%cst) : (tensor<3x5xi8>) -> tensor<3x5x!quant.uniform<u8:f32, 0.0062823070315864236:127>>
  %2 = "fxpmath.real_conv2d_relu_requantize"(%0, %1) : (tensor<300x3x!quant.uniform<u8:f32, 0.037564418067230126:163>>, tensor<3x5x!quant.uniform<u8:f32, 0.0062823070315864236:127>>) -> tensor<300x5x!quant.uniform<i8:f32, 0.0629921259842528:-1>>
  %3 = "quant.dcast"(%2) : (tensor<300x5x!quant.uniform<i8:f32, 0.0629921259842528:-1>>) -> tensor<300x5xf32>
  return %3 : tensor<300x5xf32>
}

*** IR Dump After {anonymous}::FunctionVerifier ***
func @conv2d_bias_relu_requantize(%arg0: tensor<300x3xf32>) -> tensor<300x5xf32> {
  %cst = constant dense<tensor<3x5xi8>, [[110, -110, -2, 5, -114], [-19, 62, 0, -128, 94], [30, -125, -86, -37, 59]]>
  %cst_0 = constant dense<tensor<5xi32>, [16, 32, 48, 63, 79]>
  %0 = "quant.qcast"(%arg0) : (tensor<300x3xf32>) -> tensor<300x3x!quant.uniform<u8:f32, 0.037564418067230126:163>>
  %1 = "quant.stats"(%0) {layerStats: dense<tensor<2xf32>, [-6.123000e+00, 3.450000e+00]>} : (tensor<300x3x!quant.uniform<u8:f32, 0.037564418067230126:163>>) -> tensor<300x3x!quant.uniform<u8:f32, 0.037564418067230126:163>>
  %2 = "quant.scast"(%cst) : (tensor<3x5xi8>) -> tensor<3x5x!quant.uniform<u8:f32, 0.0062823070315864236:127>>
  %3 = "quant.scast"(%cst_0) : (tensor<5xi32>) -> tensor<5x!quant.uniform<i32:f32, 0.0629921259842528>>
  %4 = "fxpmath.real_conv2d_bias_relu_requantize"(%1, %2, %3) : (tensor<300x3x!quant.uniform<u8:f32, 0.037564418067230126:163>>, tensor<3x5x!quant.uniform<u8:f32, 0.0062823070315864236:127>>, tensor<5x!quant.uniform<i32:f32, 0.0629921259842528>>) -> tensor<300x5x!quant.uniform<u8:f32, 0.0629921259842528:127>>
  %5 = "quant.stats"(%4) {layerStats: dense<tensor<2xf32>, [-8.000000e+00, 8.000000e+00]>} : (tensor<300x5x!quant.uniform<u8:f32, 0.0629921259842528:127>>) -> tensor<300x5x!quant.uniform<u8:f32, 0.0629921259842528:127>>
  %6 = "quant.dcast"(%5) : (tensor<300x5x!quant.uniform<u8:f32, 0.0629921259842528:127>>) -> tensor<300x5xf32>
  return %6 : tensor<300x5xf32>
}

*** IR Dump After {anonymous}::FunctionVerifier ***
func @conv2d_relu(%arg0: tensor<300x3xf32>) -> tensor<300x5xf32> {
  %cst = constant dense<tensor<3x5xi8>, [[110, -110, -2, 5, -114], [-19, 62, 0, -128, 94], [30, -125, -86, -37, 59]]>
  %0 = "quant.qcast"(%arg0) : (tensor<300x3xf32>) -> tensor<300x3x!quant.uniform<u8:f32, 0.037564418067230126:163>>
  %1 = "quant.stats"(%0) {layerStats: dense<tensor<2xf32>, [-6.123000e+00, 3.450000e+00]>} : (tensor<300x3x!quant.uniform<u8:f32, 0.037564418067230126:163>>) -> tensor<300x3x!quant.uniform<u8:f32, 0.037564418067230126:163>>
  %2 = "quant.scast"(%cst) : (tensor<3x5xi8>) -> tensor<3x5x!quant.uniform<u8:f32, 0.0062823070315864236:127>>
  %3 = "fxpmath.real_conv2d_relu"(%1, %2) : (tensor<300x3x!quant.uniform<u8:f32, 0.037564418067230126:163>>, tensor<3x5x!quant.uniform<u8:f32, 0.0062823070315864236:127>>) -> tensor<300x5xf32>
  return %3 : tensor<300x5xf32>
}

*** IR Dump After {anonymous}::RemoveInstrumentationPass ***
func @conv2d_requantize(%arg0: tensor<300x3xf32>) -> tensor<300x5xf32> {
  %cst = constant dense<tensor<3x5xi8>, [[110, -110, -2, 5, -114], [-19, 62, 0, -128, 94], [30, -125, -86, -37, 59]]>
  %0 = "quant.qcast"(%arg0) : (tensor<300x3xf32>) -> tensor<300x3x!quant.uniform<u8:f32, 0.037564418067230126:163>>
  %1 = "quant.scast"(%cst) : (tensor<3x5xi8>) -> tensor<3x5x!quant.uniform<u8:f32, 0.0062823070315864236:127>>
  %2 = "fxpmath.real_conv2d_requantize"(%0, %1) : (tensor<300x3x!quant.uniform<u8:f32, 0.037564418067230126:163>>, tensor<3x5x!quant.uniform<u8:f32, 0.0062823070315864236:127>>) -> tensor<300x5x!quant.uniform<i8:f32, 0.0629921259842528:-1>>
  %3 = "quant.dcast"(%2) : (tensor<300x5x!quant.uniform<i8:f32, 0.0629921259842528:-1>>) -> tensor<300x5xf32>
  return %3 : tensor<300x5xf32>
}

*** IR Dump After {anonymous}::FunctionVerifier ***
func @conv2d_requantize(%arg0: tensor<300x3xf32>) -> tensor<300x5xf32> {
  %cst = constant dense<tensor<3x5xi8>, [[110, -110, -2, 5, -114], [-19, 62, 0, -128, 94], [30, -125, -86, -37, 59]]>
  %0 = "quant.qcast"(%arg0) : (tensor<300x3xf32>) -> tensor<300x3x!quant.uniform<u8:f32, 0.037564418067230126:163>>
  %1 = "quant.scast"(%cst) : (tensor<3x5xi8>) -> tensor<3x5x!quant.uniform<u8:f32, 0.0062823070315864236:127>>
  %2 = "fxpmath.real_conv2d_requantize"(%0, %1) : (tensor<300x3x!quant.uniform<u8:f32, 0.037564418067230126:163>>, tensor<3x5x!quant.uniform<u8:f32, 0.0062823070315864236:127>>) -> tensor<300x5x!quant.uniform<i8:f32, 0.0629921259842528:-1>>
  %3 = "quant.dcast"(%2) : (tensor<300x5x!quant.uniform<i8:f32, 0.0629921259842528:-1>>) -> tensor<300x5xf32>
  return %3 : tensor<300x5xf32>
}

*** IR Dump After {anonymous}::RemoveInstrumentationPass ***
func @conv2d_bias_sum_relu_requantize(%arg0: tensor<300x3xf32>, %arg1: tensor<300x5xf32>) -> tensor<300x5xf32> {
  %cst = constant dense<tensor<3x5xi8>, [[110, -110, -2, 5, -114], [-19, 62, 0, -128, 94], [30, -125, -86, -37, 59]]>
  %cst_0 = constant dense<tensor<5xi32>, [16, 32, 48, 63, 79]>
  %0 = "quant.qcast"(%arg0) : (tensor<300x3xf32>) -> tensor<300x3x!quant.uniform<u8:f32, 0.037564418067230126:163>>
  %1 = "quant.qcast"(%arg1) : (tensor<300x5xf32>) -> tensor<300x5x!quant.uniform<u8:f32, 0.037564418067230126:163>>
  %2 = "quant.scast"(%cst) : (tensor<3x5xi8>) -> tensor<3x5x!quant.uniform<u8:f32, 0.0062823070315864236:127>>
  %3 = "quant.scast"(%cst_0) : (tensor<5xi32>) -> tensor<5x!quant.uniform<i32:f32, 0.0629921259842528>>
  %4 = "fxpmath.real_conv2d_bias_sum_relu_requantize"(%0, %2, %3, %1) : (tensor<300x3x!quant.uniform<u8:f32, 0.037564418067230126:163>>, tensor<3x5x!quant.uniform<u8:f32, 0.0062823070315864236:127>>, tensor<5x!quant.uniform<i32:f32, 0.0629921259842528>>, tensor<300x5x!quant.uniform<u8:f32, 0.037564418067230126:163>>) -> tensor<300x5x!quant.uniform<u8:f32, 0.0629921259842528:127>>
  %5 = "quant.dcast"(%4) : (tensor<300x5x!quant.uniform<u8:f32, 0.0629921259842528:127>>) -> tensor<300x5xf32>
  return %5 : tensor<300x5xf32>
}

*** IR Dump After {anonymous}::ConvertConstPass ***
func @conv2d_bias_relu(%arg0: tensor<300x3xf32>) -> tensor<300x5xf32> {
  %cst = constant dense<tensor<3x5xi8>, [[110, -110, -2, 5, -114], [-19, 62, 0, -128, 94], [30, -125, -86, -37, 59]]>
  %cst_0 = constant  {name: "constant.37"} dense<tensor<5xf32>, [1.000000e+00, 2.000000e+00, 3.000000e+00, 4.000000e+00, 5.000000e+00]>
  %0 = "quant.qcast"(%arg0) : (tensor<300x3xf32>) -> tensor<300x3x!quant.uniform<u8:f32, 0.037564418067230126:163>>
  %1 = "quant.stats"(%0) {layerStats: dense<tensor<2xf32>, [-6.123000e+00, 3.450000e+00]>} : (tensor<300x3x!quant.uniform<u8:f32, 0.037564418067230126:163>>) -> tensor<300x3x!quant.uniform<u8:f32, 0.037564418067230126:163>>
  %2 = "quant.scast"(%cst) : (tensor<3x5xi8>) -> tensor<3x5x!quant.uniform<u8:f32, 0.0062823070315864236:127>>
  %3 = "fxpmath.real_conv2d_bias_relu"(%1, %2, %cst_0) : (tensor<300x3x!quant.uniform<u8:f32, 0.037564418067230126:163>>, tensor<3x5x!quant.uniform<u8:f32, 0.0062823070315864236:127>>, tensor<5xf32>) -> tensor<300x5xf32>
  return %3 : tensor<300x5xf32>
}

*** IR Dump After {anonymous}::ConvertConstPass ***
func @conv2d_bias_sum_relu(%arg0: tensor<300x3xf32>, %arg1: tensor<300x5xf32>) -> tensor<300x5xf32> {
  %cst = constant dense<tensor<3x5xi8>, [[110, -110, -2, 5, -114], [-19, 62, 0, -128, 94], [30, -125, -86, -37, 59]]>
  %cst_0 = constant  {name: "constant.37"} dense<tensor<5xf32>, [1.000000e+00, 2.000000e+00, 3.000000e+00, 4.000000e+00, 5.000000e+00]>
  %0 = "quant.qcast"(%arg0) : (tensor<300x3xf32>) -> tensor<300x3x!quant.uniform<u8:f32, 0.037564418067230126:163>>
  %1 = "quant.stats"(%0) {layerStats: dense<tensor<2xf32>, [-6.123000e+00, 3.450000e+00]>} : (tensor<300x3x!quant.uniform<u8:f32, 0.037564418067230126:163>>) -> tensor<300x3x!quant.uniform<u8:f32, 0.037564418067230126:163>>
  %2 = "quant.qcast"(%arg1) : (tensor<300x5xf32>) -> tensor<300x5x!quant.uniform<u8:f32, 0.037564418067230126:163>>
  %3 = "quant.stats"(%2) {layerStats: dense<tensor<2xf32>, [-6.123000e+00, 3.450000e+00]>} : (tensor<300x5x!quant.uniform<u8:f32, 0.037564418067230126:163>>) -> tensor<300x5x!quant.uniform<u8:f32, 0.037564418067230126:163>>
  %4 = "quant.scast"(%cst) : (tensor<3x5xi8>) -> tensor<3x5x!quant.uniform<u8:f32, 0.0062823070315864236:127>>
  %5 = "fxpmath.real_conv2d_bias_sum_relu"(%1, %4, %cst_0, %3) : (tensor<300x3x!quant.uniform<u8:f32, 0.037564418067230126:163>>, tensor<3x5x!quant.uniform<u8:f32, 0.0062823070315864236:127>>, tensor<5xf32>, tensor<300x5x!quant.uniform<u8:f32, 0.037564418067230126:163>>) -> tensor<300x5xf32>
  return %5 : tensor<300x5xf32>
}

*** IR Dump After {anonymous}::RemoveInstrumentationPass ***
func @conv2d_bias(%arg0: tensor<300x3xf32>) -> tensor<300x5xf32> {
  %cst = constant dense<tensor<3x5xi8>, [[110, -110, -2, 5, -114], [-19, 62, 0, -128, 94], [30, -125, -86, -37, 59]]>
  %cst_0 = constant  {name: "constant.37"} dense<tensor<5xf32>, [1.000000e+00, 2.000000e+00, 3.000000e+00, 4.000000e+00, 5.000000e+00]>
  %0 = "quant.qcast"(%arg0) : (tensor<300x3xf32>) -> tensor<300x3x!quant.uniform<u8:f32, 0.037564418067230126:163>>
  %1 = "quant.scast"(%cst) : (tensor<3x5xi8>) -> tensor<3x5x!quant.uniform<u8:f32, 0.0062823070315864236:127>>
  %2 = "fxpmath.real_conv2d_bias"(%0, %1, %cst_0) : (tensor<300x3x!quant.uniform<u8:f32, 0.037564418067230126:163>>, tensor<3x5x!quant.uniform<u8:f32, 0.0062823070315864236:127>>, tensor<5xf32>) -> tensor<300x5xf32>
  return %2 : tensor<300x5xf32>
}

*** IR Dump After {anonymous}::FunctionVerifier ***
func @conv2d_bias(%arg0: tensor<300x3xf32>) -> tensor<300x5xf32> {
  %cst = constant dense<tensor<3x5xi8>, [[110, -110, -2, 5, -114], [-19, 62, 0, -128, 94], [30, -125, -86, -37, 59]]>
  %cst_0 = constant  {name: "constant.37"} dense<tensor<5xf32>, [1.000000e+00, 2.000000e+00, 3.000000e+00, 4.000000e+00, 5.000000e+00]>
  %0 = "quant.qcast"(%arg0) : (tensor<300x3xf32>) -> tensor<300x3x!quant.uniform<u8:f32, 0.037564418067230126:163>>
  %1 = "quant.scast"(%cst) : (tensor<3x5xi8>) -> tensor<3x5x!quant.uniform<u8:f32, 0.0062823070315864236:127>>
  %2 = "fxpmath.real_conv2d_bias"(%0, %1, %cst_0) : (tensor<300x3x!quant.uniform<u8:f32, 0.037564418067230126:163>>, tensor<3x5x!quant.uniform<u8:f32, 0.0062823070315864236:127>>, tensor<5xf32>) -> tensor<300x5xf32>
  return %2 : tensor<300x5xf32>
}

*** IR Dump After {anonymous}::RemoveInstrumentationPass ***
func @conv2d_bias_relu_requantize(%arg0: tensor<300x3xf32>) -> tensor<300x5xf32> {
  %cst = constant dense<tensor<3x5xi8>, [[110, -110, -2, 5, -114], [-19, 62, 0, -128, 94], [30, -125, -86, -37, 59]]>
  %cst_0 = constant dense<tensor<5xi32>, [16, 32, 48, 63, 79]>
  %0 = "quant.qcast"(%arg0) : (tensor<300x3xf32>) -> tensor<300x3x!quant.uniform<u8:f32, 0.037564418067230126:163>>
  %1 = "quant.scast"(%cst) : (tensor<3x5xi8>) -> tensor<3x5x!quant.uniform<u8:f32, 0.0062823070315864236:127>>
  %2 = "quant.scast"(%cst_0) : (tensor<5xi32>) -> tensor<5x!quant.uniform<i32:f32, 0.0629921259842528>>
  %3 = "fxpmath.real_conv2d_bias_relu_requantize"(%0, %1, %2) : (tensor<300x3x!quant.uniform<u8:f32, 0.037564418067230126:163>>, tensor<3x5x!quant.uniform<u8:f32, 0.0062823070315864236:127>>, tensor<5x!quant.uniform<i32:f32, 0.0629921259842528>>) -> tensor<300x5x!quant.uniform<u8:f32, 0.0629921259842528:127>>
  %4 = "quant.dcast"(%3) : (tensor<300x5x!quant.uniform<u8:f32, 0.0629921259842528:127>>) -> tensor<300x5xf32>
  return %4 : tensor<300x5xf32>
}

*** IR Dump After {anonymous}::RemoveInstrumentationPass ***
func @conv2d_relu(%arg0: tensor<300x3xf32>) -> tensor<300x5xf32> {
  %cst = constant dense<tensor<3x5xi8>, [[110, -110, -2, 5, -114], [-19, 62, 0, -128, 94], [30, -125, -86, -37, 59]]>
  %0 = "quant.qcast"(%arg0) : (tensor<300x3xf32>) -> tensor<300x3x!quant.uniform<u8:f32, 0.037564418067230126:163>>
  %1 = "quant.scast"(%cst) : (tensor<3x5xi8>) -> tensor<3x5x!quant.uniform<u8:f32, 0.0062823070315864236:127>>
  %2 = "fxpmath.real_conv2d_relu"(%0, %1) : (tensor<300x3x!quant.uniform<u8:f32, 0.037564418067230126:163>>, tensor<3x5x!quant.uniform<u8:f32, 0.0062823070315864236:127>>) -> tensor<300x5xf32>
  return %2 : tensor<300x5xf32>
}

*** IR Dump After {anonymous}::FunctionVerifier ***
func @conv2d_relu(%arg0: tensor<300x3xf32>) -> tensor<300x5xf32> {
  %cst = constant dense<tensor<3x5xi8>, [[110, -110, -2, 5, -114], [-19, 62, 0, -128, 94], [30, -125, -86, -37, 59]]>
  %0 = "quant.qcast"(%arg0) : (tensor<300x3xf32>) -> tensor<300x3x!quant.uniform<u8:f32, 0.037564418067230126:163>>
  %1 = "quant.scast"(%cst) : (tensor<3x5xi8>) -> tensor<3x5x!quant.uniform<u8:f32, 0.0062823070315864236:127>>
  %2 = "fxpmath.real_conv2d_relu"(%0, %1) : (tensor<300x3x!quant.uniform<u8:f32, 0.037564418067230126:163>>, tensor<3x5x!quant.uniform<u8:f32, 0.0062823070315864236:127>>) -> tensor<300x5xf32>
  return %2 : tensor<300x5xf32>
}

*** IR Dump After {anonymous}::Canonicalizer ***
func @conv2d_requantize(%arg0: tensor<300x3xf32>) -> tensor<300x5xf32> {
  %cst = constant dense<tensor<3x5xi8>, [[110, -110, -2, 5, -114], [-19, 62, 0, -128, 94], [30, -125, -86, -37, 59]]>
  %0 = "quant.qcast"(%arg0) : (tensor<300x3xf32>) -> tensor<300x3x!quant.uniform<u8:f32, 0.037564418067230126:163>>
  %1 = "quant.scast"(%cst) : (tensor<3x5xi8>) -> tensor<3x5x!quant.uniform<u8:f32, 0.0062823070315864236:127>>
  %2 = "fxpmath.real_conv2d_requantize"(%0, %1) : (tensor<300x3x!quant.uniform<u8:f32, 0.037564418067230126:163>>, tensor<3x5x!quant.uniform<u8:f32, 0.0062823070315864236:127>>) -> tensor<300x5x!quant.uniform<i8:f32, 0.0629921259842528:-1>>
  %3 = "quant.dcast"(%2) : (tensor<300x5x!quant.uniform<i8:f32, 0.0629921259842528:-1>>) -> tensor<300x5xf32>
  return %3 : tensor<300x5xf32>
}

*** IR Dump After {anonymous}::FunctionVerifier ***
func @conv2d_requantize(%arg0: tensor<300x3xf32>) -> tensor<300x5xf32> {
  %cst = constant dense<tensor<3x5xi8>, [[110, -110, -2, 5, -114], [-19, 62, 0, -128, 94], [30, -125, -86, -37, 59]]>
  %0 = "quant.qcast"(%arg0) : (tensor<300x3xf32>) -> tensor<300x3x!quant.uniform<u8:f32, 0.037564418067230126:163>>
  %1 = "quant.scast"(%cst) : (tensor<3x5xi8>) -> tensor<3x5x!quant.uniform<u8:f32, 0.0062823070315864236:127>>
  %2 = "fxpmath.real_conv2d_requantize"(%0, %1) : (tensor<300x3x!quant.uniform<u8:f32, 0.037564418067230126:163>>, tensor<3x5x!quant.uniform<u8:f32, 0.0062823070315864236:127>>) -> tensor<300x5x!quant.uniform<i8:f32, 0.0629921259842528:-1>>
  %3 = "quant.dcast"(%2) : (tensor<300x5x!quant.uniform<i8:f32, 0.0629921259842528:-1>>) -> tensor<300x5xf32>
  return %3 : tensor<300x5xf32>
}

*** IR Dump After {anonymous}::FunctionVerifier ***
func @conv2d_bias_relu(%arg0: tensor<300x3xf32>) -> tensor<300x5xf32> {
  %cst = constant dense<tensor<3x5xi8>, [[110, -110, -2, 5, -114], [-19, 62, 0, -128, 94], [30, -125, -86, -37, 59]]>
  %cst_0 = constant  {name: "constant.37"} dense<tensor<5xf32>, [1.000000e+00, 2.000000e+00, 3.000000e+00, 4.000000e+00, 5.000000e+00]>
  %0 = "quant.qcast"(%arg0) : (tensor<300x3xf32>) -> tensor<300x3x!quant.uniform<u8:f32, 0.037564418067230126:163>>
  %1 = "quant.stats"(%0) {layerStats: dense<tensor<2xf32>, [-6.123000e+00, 3.450000e+00]>} : (tensor<300x3x!quant.uniform<u8:f32, 0.037564418067230126:163>>) -> tensor<300x3x!quant.uniform<u8:f32, 0.037564418067230126:163>>
  %2 = "quant.scast"(%cst) : (tensor<3x5xi8>) -> tensor<3x5x!quant.uniform<u8:f32, 0.0062823070315864236:127>>
  %3 = "fxpmath.real_conv2d_bias_relu"(%1, %2, %cst_0) : (tensor<300x3x!quant.uniform<u8:f32, 0.037564418067230126:163>>, tensor<3x5x!quant.uniform<u8:f32, 0.0062823070315864236:127>>, tensor<5xf32>) -> tensor<300x5xf32>
  return %3 : tensor<300x5xf32>
}

*** IR Dump After {anonymous}::FunctionVerifier ***
func @conv2d_bias_sum_relu(%arg0: tensor<300x3xf32>, %arg1: tensor<300x5xf32>) -> tensor<300x5xf32> {
  %cst = constant dense<tensor<3x5xi8>, [[110, -110, -2, 5, -114], [-19, 62, 0, -128, 94], [30, -125, -86, -37, 59]]>
  %cst_0 = constant  {name: "constant.37"} dense<tensor<5xf32>, [1.000000e+00, 2.000000e+00, 3.000000e+00, 4.000000e+00, 5.000000e+00]>
  %0 = "quant.qcast"(%arg0) : (tensor<300x3xf32>) -> tensor<300x3x!quant.uniform<u8:f32, 0.037564418067230126:163>>
  %1 = "quant.stats"(%0) {layerStats: dense<tensor<2xf32>, [-6.123000e+00, 3.450000e+00]>} : (tensor<300x3x!quant.uniform<u8:f32, 0.037564418067230126:163>>) -> tensor<300x3x!quant.uniform<u8:f32, 0.037564418067230126:163>>
  %2 = "quant.qcast"(%arg1) : (tensor<300x5xf32>) -> tensor<300x5x!quant.uniform<u8:f32, 0.037564418067230126:163>>
  %3 = "quant.stats"(%2) {layerStats: dense<tensor<2xf32>, [-6.123000e+00, 3.450000e+00]>} : (tensor<300x5x!quant.uniform<u8:f32, 0.037564418067230126:163>>) -> tensor<300x5x!quant.uniform<u8:f32, 0.037564418067230126:163>>
  %4 = "quant.scast"(%cst) : (tensor<3x5xi8>) -> tensor<3x5x!quant.uniform<u8:f32, 0.0062823070315864236:127>>
  %5 = "fxpmath.real_conv2d_bias_sum_relu"(%1, %4, %cst_0, %3) : (tensor<300x3x!quant.uniform<u8:f32, 0.037564418067230126:163>>, tensor<3x5x!quant.uniform<u8:f32, 0.0062823070315864236:127>>, tensor<5xf32>, tensor<300x5x!quant.uniform<u8:f32, 0.037564418067230126:163>>) -> tensor<300x5xf32>
  return %5 : tensor<300x5xf32>
}

*** IR Dump After {anonymous}::Canonicalizer ***
func @conv2d_relu_requantize(%arg0: tensor<300x3xf32>) -> tensor<300x5xf32> {
  %cst = constant dense<tensor<3x5xi8>, [[110, -110, -2, 5, -114], [-19, 62, 0, -128, 94], [30, -125, -86, -37, 59]]>
  %0 = "quant.qcast"(%arg0) : (tensor<300x3xf32>) -> tensor<300x3x!quant.uniform<u8:f32, 0.037564418067230126:163>>
  %1 = "quant.scast"(%cst) : (tensor<3x5xi8>) -> tensor<3x5x!quant.uniform<u8:f32, 0.0062823070315864236:127>>
  %2 = "fxpmath.real_conv2d_relu_requantize"(%0, %1) : (tensor<300x3x!quant.uniform<u8:f32, 0.037564418067230126:163>>, tensor<3x5x!quant.uniform<u8:f32, 0.0062823070315864236:127>>) -> tensor<300x5x!quant.uniform<i8:f32, 0.0629921259842528:-1>>
  %3 = "quant.dcast"(%2) : (tensor<300x5x!quant.uniform<i8:f32, 0.0629921259842528:-1>>) -> tensor<300x5xf32>
  return %3 : tensor<300x5xf32>
}

*** IR Dump After {anonymous}::FunctionVerifier ***
func @conv2d_relu_requantize(%arg0: tensor<300x3xf32>) -> tensor<300x5xf32> {
  %cst = constant dense<tensor<3x5xi8>, [[110, -110, -2, 5, -114], [-19, 62, 0, -128, 94], [30, -125, -86, -37, 59]]>
  %0 = "quant.qcast"(%arg0) : (tensor<300x3xf32>) -> tensor<300x3x!quant.uniform<u8:f32, 0.037564418067230126:163>>
  %1 = "quant.scast"(%cst) : (tensor<3x5xi8>) -> tensor<3x5x!quant.uniform<u8:f32, 0.0062823070315864236:127>>
  %2 = "fxpmath.real_conv2d_relu_requantize"(%0, %1) : (tensor<300x3x!quant.uniform<u8:f32, 0.037564418067230126:163>>, tensor<3x5x!quant.uniform<u8:f32, 0.0062823070315864236:127>>) -> tensor<300x5x!quant.uniform<i8:f32, 0.0629921259842528:-1>>
  %3 = "quant.dcast"(%2) : (tensor<300x5x!quant.uniform<i8:f32, 0.0629921259842528:-1>>) -> tensor<300x5xf32>
  return %3 : tensor<300x5xf32>
}

*** IR Dump After {anonymous}::FunctionVerifier ***
func @conv2d_bias_relu_requantize(%arg0: tensor<300x3xf32>) -> tensor<300x5xf32> {
  %cst = constant dense<tensor<3x5xi8>, [[110, -110, -2, 5, -114], [-19, 62, 0, -128, 94], [30, -125, -86, -37, 59]]>
  %cst_0 = constant dense<tensor<5xi32>, [16, 32, 48, 63, 79]>
  %0 = "quant.qcast"(%arg0) : (tensor<300x3xf32>) -> tensor<300x3x!quant.uniform<u8:f32, 0.037564418067230126:163>>
  %1 = "quant.scast"(%cst) : (tensor<3x5xi8>) -> tensor<3x5x!quant.uniform<u8:f32, 0.0062823070315864236:127>>
  %2 = "quant.scast"(%cst_0) : (tensor<5xi32>) -> tensor<5x!quant.uniform<i32:f32, 0.0629921259842528>>
  %3 = "fxpmath.real_conv2d_bias_relu_requantize"(%0, %1, %2) : (tensor<300x3x!quant.uniform<u8:f32, 0.037564418067230126:163>>, tensor<3x5x!quant.uniform<u8:f32, 0.0062823070315864236:127>>, tensor<5x!quant.uniform<i32:f32, 0.0629921259842528>>) -> tensor<300x5x!quant.uniform<u8:f32, 0.0629921259842528:127>>
  %4 = "quant.dcast"(%3) : (tensor<300x5x!quant.uniform<u8:f32, 0.0629921259842528:127>>) -> tensor<300x5xf32>
  return %4 : tensor<300x5xf32>
}

*** IR Dump After {anonymous}::ConvertConstPass ***
func @conv2d_bias_requantize(%arg0: tensor<300x3xf32>) -> tensor<300x5xf32> {
  %cst = constant dense<tensor<3x5xi8>, [[110, -110, -2, 5, -114], [-19, 62, 0, -128, 94], [30, -125, -86, -37, 59]]>
  %cst_0 = constant dense<tensor<5xi32>, [16, 32, 48, 63, 79]>
  %0 = "quant.qcast"(%arg0) : (tensor<300x3xf32>) -> tensor<300x3x!quant.uniform<u8:f32, 0.037564418067230126:163>>
  %1 = "quant.stats"(%0) {layerStats: dense<tensor<2xf32>, [-6.123000e+00, 3.450000e+00]>} : (tensor<300x3x!quant.uniform<u8:f32, 0.037564418067230126:163>>) -> tensor<300x3x!quant.uniform<u8:f32, 0.037564418067230126:163>>
  %2 = "quant.scast"(%cst) : (tensor<3x5xi8>) -> tensor<3x5x!quant.uniform<u8:f32, 0.0062823070315864236:127>>
  %3 = "quant.scast"(%cst_0) : (tensor<5xi32>) -> tensor<5x!quant.uniform<i32:f32, 0.0629921259842528>>
  %4 = "fxpmath.real_conv2d_bias_requantize"(%1, %2, %3) : (tensor<300x3x!quant.uniform<u8:f32, 0.037564418067230126:163>>, tensor<3x5x!quant.uniform<u8:f32, 0.0062823070315864236:127>>, tensor<5x!quant.uniform<i32:f32, 0.0629921259842528>>) -> tensor<300x5x!quant.uniform<i8:f32, 0.0629921259842528:-1>>
  %5 = "quant.stats"(%4) {layerStats: dense<tensor<2xf32>, [-8.000000e+00, 8.000000e+00]>} : (tensor<300x5x!quant.uniform<i8:f32, 0.0629921259842528:-1>>) -> tensor<300x5x!quant.uniform<i8:f32, 0.0629921259842528:-1>>
  %6 = "quant.dcast"(%5) : (tensor<300x5x!quant.uniform<i8:f32, 0.0629921259842528:-1>>) -> tensor<300x5xf32>
  return %6 : tensor<300x5xf32>
}

*** IR Dump After {anonymous}::Canonicalizer ***
func @conv2d_relu(%arg0: tensor<300x3xf32>) -> tensor<300x5xf32> {
  %cst = constant dense<tensor<3x5xi8>, [[110, -110, -2, 5, -114], [-19, 62, 0, -128, 94], [30, -125, -86, -37, 59]]>
  %0 = "quant.qcast"(%arg0) : (tensor<300x3xf32>) -> tensor<300x3x!quant.uniform<u8:f32, 0.037564418067230126:163>>
  %1 = "quant.scast"(%cst) : (tensor<3x5xi8>) -> tensor<3x5x!quant.uniform<u8:f32, 0.0062823070315864236:127>>
  %2 = "fxpmath.real_conv2d_relu"(%0, %1) : (tensor<300x3x!quant.uniform<u8:f32, 0.037564418067230126:163>>, tensor<3x5x!quant.uniform<u8:f32, 0.0062823070315864236:127>>) -> tensor<300x5xf32>
  return %2 : tensor<300x5xf32>
}

*** IR Dump After {anonymous}::FunctionVerifier ***
func @conv2d_relu(%arg0: tensor<300x3xf32>) -> tensor<300x5xf32> {
  %cst = constant dense<tensor<3x5xi8>, [[110, -110, -2, 5, -114], [-19, 62, 0, -128, 94], [30, -125, -86, -37, 59]]>
  %0 = "quant.qcast"(%arg0) : (tensor<300x3xf32>) -> tensor<300x3x!quant.uniform<u8:f32, 0.037564418067230126:163>>
  %1 = "quant.scast"(%cst) : (tensor<3x5xi8>) -> tensor<3x5x!quant.uniform<u8:f32, 0.0062823070315864236:127>>
  %2 = "fxpmath.real_conv2d_relu"(%0, %1) : (tensor<300x3x!quant.uniform<u8:f32, 0.037564418067230126:163>>, tensor<3x5x!quant.uniform<u8:f32, 0.0062823070315864236:127>>) -> tensor<300x5xf32>
  return %2 : tensor<300x5xf32>
}

*** IR Dump After {anonymous}::RemoveInstrumentationPass ***
func @conv2d_bias_relu(%arg0: tensor<300x3xf32>) -> tensor<300x5xf32> {
  %cst = constant dense<tensor<3x5xi8>, [[110, -110, -2, 5, -114], [-19, 62, 0, -128, 94], [30, -125, -86, -37, 59]]>
  %cst_0 = constant  {name: "constant.37"} dense<tensor<5xf32>, [1.000000e+00, 2.000000e+00, 3.000000e+00, 4.000000e+00, 5.000000e+00]>
  %0 = "quant.qcast"(%arg0) : (tensor<300x3xf32>) -> tensor<300x3x!quant.uniform<u8:f32, 0.037564418067230126:163>>
  %1 = "quant.scast"(%cst) : (tensor<3x5xi8>) -> tensor<3x5x!quant.uniform<u8:f32, 0.0062823070315864236:127>>
  %2 = "fxpmath.real_conv2d_bias_relu"(%0, %1, %cst_0) : (tensor<300x3x!quant.uniform<u8:f32, 0.037564418067230126:163>>, tensor<3x5x!quant.uniform<u8:f32, 0.0062823070315864236:127>>, tensor<5xf32>) -> tensor<300x5xf32>
  return %2 : tensor<300x5xf32>
}

*** IR Dump After {anonymous}::RemoveInstrumentationPass ***
func @conv2d_bias_sum_relu(%arg0: tensor<300x3xf32>, %arg1: tensor<300x5xf32>) -> tensor<300x5xf32> {
  %cst = constant dense<tensor<3x5xi8>, [[110, -110, -2, 5, -114], [-19, 62, 0, -128, 94], [30, -125, -86, -37, 59]]>
  %cst_0 = constant  {name: "constant.37"} dense<tensor<5xf32>, [1.000000e+00, 2.000000e+00, 3.000000e+00, 4.000000e+00, 5.000000e+00]>
  %0 = "quant.qcast"(%arg0) : (tensor<300x3xf32>) -> tensor<300x3x!quant.uniform<u8:f32, 0.037564418067230126:163>>
  %1 = "quant.qcast"(%arg1) : (tensor<300x5xf32>) -> tensor<300x5x!quant.uniform<u8:f32, 0.037564418067230126:163>>
  %2 = "quant.scast"(%cst) : (tensor<3x5xi8>) -> tensor<3x5x!quant.uniform<u8:f32, 0.0062823070315864236:127>>
  %3 = "fxpmath.real_conv2d_bias_sum_relu"(%0, %2, %cst_0, %1) : (tensor<300x3x!quant.uniform<u8:f32, 0.037564418067230126:163>>, tensor<3x5x!quant.uniform<u8:f32, 0.0062823070315864236:127>>, tensor<5xf32>, tensor<300x5x!quant.uniform<u8:f32, 0.037564418067230126:163>>) -> tensor<300x5xf32>
  return %3 : tensor<300x5xf32>
}

*** IR Dump After {anonymous}::FunctionVerifier ***
func @conv2d_bias_sum_relu(%arg0: tensor<300x3xf32>, %arg1: tensor<300x5xf32>) -> tensor<300x5xf32> {
  %cst = constant dense<tensor<3x5xi8>, [[110, -110, -2, 5, -114], [-19, 62, 0, -128, 94], [30, -125, -86, -37, 59]]>
  %cst_0 = constant  {name: "constant.37"} dense<tensor<5xf32>, [1.000000e+00, 2.000000e+00, 3.000000e+00, 4.000000e+00, 5.000000e+00]>
  %0 = "quant.qcast"(%arg0) : (tensor<300x3xf32>) -> tensor<300x3x!quant.uniform<u8:f32, 0.037564418067230126:163>>
  %1 = "quant.qcast"(%arg1) : (tensor<300x5xf32>) -> tensor<300x5x!quant.uniform<u8:f32, 0.037564418067230126:163>>
  %2 = "quant.scast"(%cst) : (tensor<3x5xi8>) -> tensor<3x5x!quant.uniform<u8:f32, 0.0062823070315864236:127>>
  %3 = "fxpmath.real_conv2d_bias_sum_relu"(%0, %2, %cst_0, %1) : (tensor<300x3x!quant.uniform<u8:f32, 0.037564418067230126:163>>, tensor<3x5x!quant.uniform<u8:f32, 0.0062823070315864236:127>>, tensor<5xf32>, tensor<300x5x!quant.uniform<u8:f32, 0.037564418067230126:163>>) -> tensor<300x5xf32>
  return %3 : tensor<300x5xf32>
}

*** IR Dump After {anonymous}::Canonicalizer ***
func @conv2d_bias_relu_requantize(%arg0: tensor<300x3xf32>) -> tensor<300x5xf32> {
  %cst = constant dense<tensor<3x5xi8>, [[110, -110, -2, 5, -114], [-19, 62, 0, -128, 94], [30, -125, -86, -37, 59]]>
  %cst_0 = constant dense<tensor<5xi32>, [16, 32, 48, 63, 79]>
  %0 = "quant.qcast"(%arg0) : (tensor<300x3xf32>) -> tensor<300x3x!quant.uniform<u8:f32, 0.037564418067230126:163>>
  %1 = "quant.scast"(%cst) : (tensor<3x5xi8>) -> tensor<3x5x!quant.uniform<u8:f32, 0.0062823070315864236:127>>
  %2 = "quant.scast"(%cst_0) : (tensor<5xi32>) -> tensor<5x!quant.uniform<i32:f32, 0.0629921259842528>>
  %3 = "fxpmath.real_conv2d_bias_relu_requantize"(%0, %1, %2) : (tensor<300x3x!quant.uniform<u8:f32, 0.037564418067230126:163>>, tensor<3x5x!quant.uniform<u8:f32, 0.0062823070315864236:127>>, tensor<5x!quant.uniform<i32:f32, 0.0629921259842528>>) -> tensor<300x5x!quant.uniform<u8:f32, 0.0629921259842528:127>>
  %4 = "quant.dcast"(%3) : (tensor<300x5x!quant.uniform<u8:f32, 0.0629921259842528:127>>) -> tensor<300x5xf32>
  return %4 : tensor<300x5xf32>
}

*** IR Dump After {anonymous}::FunctionVerifier ***
func @conv2d_bias_requantize(%arg0: tensor<300x3xf32>) -> tensor<300x5xf32> {
  %cst = constant dense<tensor<3x5xi8>, [[110, -110, -2, 5, -114], [-19, 62, 0, -128, 94], [30, -125, -86, -37, 59]]>
  %cst_0 = constant dense<tensor<5xi32>, [16, 32, 48, 63, 79]>
  %0 = "quant.qcast"(%arg0) : (tensor<300x3xf32>) -> tensor<300x3x!quant.uniform<u8:f32, 0.037564418067230126:163>>
  %1 = "quant.stats"(%0) {layerStats: dense<tensor<2xf32>, [-6.123000e+00, 3.450000e+00]>} : (tensor<300x3x!quant.uniform<u8:f32, 0.037564418067230126:163>>) -> tensor<300x3x!quant.uniform<u8:f32, 0.037564418067230126:163>>
  %2 = "quant.scast"(%cst) : (tensor<3x5xi8>) -> tensor<3x5x!quant.uniform<u8:f32, 0.0062823070315864236:127>>
  %3 = "quant.scast"(%cst_0) : (tensor<5xi32>) -> tensor<5x!quant.uniform<i32:f32, 0.0629921259842528>>
  %4 = "fxpmath.real_conv2d_bias_requantize"(%1, %2, %3) : (tensor<300x3x!quant.uniform<u8:f32, 0.037564418067230126:163>>, tensor<3x5x!quant.uniform<u8:f32, 0.0062823070315864236:127>>, tensor<5x!quant.uniform<i32:f32, 0.0629921259842528>>) -> tensor<300x5x!quant.uniform<i8:f32, 0.0629921259842528:-1>>
  %5 = "quant.stats"(%4) {layerStats: dense<tensor<2xf32>, [-8.000000e+00, 8.000000e+00]>} : (tensor<300x5x!quant.uniform<i8:f32, 0.0629921259842528:-1>>) -> tensor<300x5x!quant.uniform<i8:f32, 0.0629921259842528:-1>>
  %6 = "quant.dcast"(%5) : (tensor<300x5x!quant.uniform<i8:f32, 0.0629921259842528:-1>>) -> tensor<300x5xf32>
  return %6 : tensor<300x5xf32>
}

*** IR Dump After {anonymous}::FunctionVerifier ***
func @conv2d_bias_sum_relu_requantize(%arg0: tensor<300x3xf32>, %arg1: tensor<300x5xf32>) -> tensor<300x5xf32> {
  %cst = constant dense<tensor<3x5xi8>, [[110, -110, -2, 5, -114], [-19, 62, 0, -128, 94], [30, -125, -86, -37, 59]]>
  %cst_0 = constant dense<tensor<5xi32>, [16, 32, 48, 63, 79]>
  %0 = "quant.qcast"(%arg0) : (tensor<300x3xf32>) -> tensor<300x3x!quant.uniform<u8:f32, 0.037564418067230126:163>>
  %1 = "quant.qcast"(%arg1) : (tensor<300x5xf32>) -> tensor<300x5x!quant.uniform<u8:f32, 0.037564418067230126:163>>
  %2 = "quant.scast"(%cst) : (tensor<3x5xi8>) -> tensor<3x5x!quant.uniform<u8:f32, 0.0062823070315864236:127>>
  %3 = "quant.scast"(%cst_0) : (tensor<5xi32>) -> tensor<5x!quant.uniform<i32:f32, 0.0629921259842528>>
  %4 = "fxpmath.real_conv2d_bias_sum_relu_requantize"(%0, %2, %3, %1) : (tensor<300x3x!quant.uniform<u8:f32, 0.037564418067230126:163>>, tensor<3x5x!quant.uniform<u8:f32, 0.0062823070315864236:127>>, tensor<5x!quant.uniform<i32:f32, 0.0629921259842528>>, tensor<300x5x!quant.uniform<u8:f32, 0.037564418067230126:163>>) -> tensor<300x5x!quant.uniform<u8:f32, 0.0629921259842528:127>>
  %5 = "quant.dcast"(%4) : (tensor<300x5x!quant.uniform<u8:f32, 0.0629921259842528:127>>) -> tensor<300x5xf32>
  return %5 : tensor<300x5xf32>
}

*** IR Dump After {anonymous}::FunctionVerifier ***
func @conv2d_bias_relu(%arg0: tensor<300x3xf32>) -> tensor<300x5xf32> {
  %cst = constant dense<tensor<3x5xi8>, [[110, -110, -2, 5, -114], [-19, 62, 0, -128, 94], [30, -125, -86, -37, 59]]>
  %cst_0 = constant  {name: "constant.37"} dense<tensor<5xf32>, [1.000000e+00, 2.000000e+00, 3.000000e+00, 4.000000e+00, 5.000000e+00]>
  %0 = "quant.qcast"(%arg0) : (tensor<300x3xf32>) -> tensor<300x3x!quant.uniform<u8:f32, 0.037564418067230126:163>>
  %1 = "quant.scast"(%cst) : (tensor<3x5xi8>) -> tensor<3x5x!quant.uniform<u8:f32, 0.0062823070315864236:127>>
  %2 = "fxpmath.real_conv2d_bias_relu"(%0, %1, %cst_0) : (tensor<300x3x!quant.uniform<u8:f32, 0.037564418067230126:163>>, tensor<3x5x!quant.uniform<u8:f32, 0.0062823070315864236:127>>, tensor<5xf32>) -> tensor<300x5xf32>
  return %2 : tensor<300x5xf32>
}

*** IR Dump After {anonymous}::Canonicalizer ***
func @conv2d_bias(%arg0: tensor<300x3xf32>) -> tensor<300x5xf32> {
  %cst = constant dense<tensor<3x5xi8>, [[110, -110, -2, 5, -114], [-19, 62, 0, -128, 94], [30, -125, -86, -37, 59]]>
  %cst_0 = constant  {name: "constant.37"} dense<tensor<5xf32>, [1.000000e+00, 2.000000e+00, 3.000000e+00, 4.000000e+00, 5.000000e+00]>
  %0 = "quant.qcast"(%arg0) : (tensor<300x3xf32>) -> tensor<300x3x!quant.uniform<u8:f32, 0.037564418067230126:163>>
  %1 = "quant.scast"(%cst) : (tensor<3x5xi8>) -> tensor<3x5x!quant.uniform<u8:f32, 0.0062823070315864236:127>>
  %2 = "fxpmath.real_conv2d_bias"(%0, %1, %cst_0) : (tensor<300x3x!quant.uniform<u8:f32, 0.037564418067230126:163>>, tensor<3x5x!quant.uniform<u8:f32, 0.0062823070315864236:127>>, tensor<5xf32>) -> tensor<300x5xf32>
  return %2 : tensor<300x5xf32>
}

*** IR Dump After {anonymous}::Canonicalizer ***
func @conv2d_bias_sum_relu(%arg0: tensor<300x3xf32>, %arg1: tensor<300x5xf32>) -> tensor<300x5xf32> {
  %cst = constant dense<tensor<3x5xi8>, [[110, -110, -2, 5, -114], [-19, 62, 0, -128, 94], [30, -125, -86, -37, 59]]>
  %cst_0 = constant  {name: "constant.37"} dense<tensor<5xf32>, [1.000000e+00, 2.000000e+00, 3.000000e+00, 4.000000e+00, 5.000000e+00]>
  %0 = "quant.qcast"(%arg0) : (tensor<300x3xf32>) -> tensor<300x3x!quant.uniform<u8:f32, 0.037564418067230126:163>>
  %1 = "quant.qcast"(%arg1) : (tensor<300x5xf32>) -> tensor<300x5x!quant.uniform<u8:f32, 0.037564418067230126:163>>
  %2 = "quant.scast"(%cst) : (tensor<3x5xi8>) -> tensor<3x5x!quant.uniform<u8:f32, 0.0062823070315864236:127>>
  %3 = "fxpmath.real_conv2d_bias_sum_relu"(%0, %2, %cst_0, %1) : (tensor<300x3x!quant.uniform<u8:f32, 0.037564418067230126:163>>, tensor<3x5x!quant.uniform<u8:f32, 0.0062823070315864236:127>>, tensor<5xf32>, tensor<300x5x!quant.uniform<u8:f32, 0.037564418067230126:163>>) -> tensor<300x5xf32>
  return %3 : tensor<300x5xf32>
}

*** IR Dump After {anonymous}::FunctionVerifier ***
func @conv2d_bias_sum_relu(%arg0: tensor<300x3xf32>, %arg1: tensor<300x5xf32>) -> tensor<300x5xf32> {
  %cst = constant dense<tensor<3x5xi8>, [[110, -110, -2, 5, -114], [-19, 62, 0, -128, 94], [30, -125, -86, -37, 59]]>
  %cst_0 = constant  {name: "constant.37"} dense<tensor<5xf32>, [1.000000e+00, 2.000000e+00, 3.000000e+00, 4.000000e+00, 5.000000e+00]>
  %0 = "quant.qcast"(%arg0) : (tensor<300x3xf32>) -> tensor<300x3x!quant.uniform<u8:f32, 0.037564418067230126:163>>
  %1 = "quant.qcast"(%arg1) : (tensor<300x5xf32>) -> tensor<300x5x!quant.uniform<u8:f32, 0.037564418067230126:163>>
  %2 = "quant.scast"(%cst) : (tensor<3x5xi8>) -> tensor<3x5x!quant.uniform<u8:f32, 0.0062823070315864236:127>>
  %3 = "fxpmath.real_conv2d_bias_sum_relu"(%0, %2, %cst_0, %1) : (tensor<300x3x!quant.uniform<u8:f32, 0.037564418067230126:163>>, tensor<3x5x!quant.uniform<u8:f32, 0.0062823070315864236:127>>, tensor<5xf32>, tensor<300x5x!quant.uniform<u8:f32, 0.037564418067230126:163>>) -> tensor<300x5xf32>
  return %3 : tensor<300x5xf32>
}

*** IR Dump After {anonymous}::RemoveInstrumentationPass ***
func @conv2d_bias_requantize(%arg0: tensor<300x3xf32>) -> tensor<300x5xf32> {
  %cst = constant dense<tensor<3x5xi8>, [[110, -110, -2, 5, -114], [-19, 62, 0, -128, 94], [30, -125, -86, -37, 59]]>
  %cst_0 = constant dense<tensor<5xi32>, [16, 32, 48, 63, 79]>
  %0 = "quant.qcast"(%arg0) : (tensor<300x3xf32>) -> tensor<300x3x!quant.uniform<u8:f32, 0.037564418067230126:163>>
  %1 = "quant.scast"(%cst) : (tensor<3x5xi8>) -> tensor<3x5x!quant.uniform<u8:f32, 0.0062823070315864236:127>>
  %2 = "quant.scast"(%cst_0) : (tensor<5xi32>) -> tensor<5x!quant.uniform<i32:f32, 0.0629921259842528>>
  %3 = "fxpmath.real_conv2d_bias_requantize"(%0, %1, %2) : (tensor<300x3x!quant.uniform<u8:f32, 0.037564418067230126:163>>, tensor<3x5x!quant.uniform<u8:f32, 0.0062823070315864236:127>>, tensor<5x!quant.uniform<i32:f32, 0.0629921259842528>>) -> tensor<300x5x!quant.uniform<i8:f32, 0.0629921259842528:-1>>
  %4 = "quant.dcast"(%3) : (tensor<300x5x!quant.uniform<i8:f32, 0.0629921259842528:-1>>) -> tensor<300x5xf32>
  return %4 : tensor<300x5xf32>
}

*** IR Dump After {anonymous}::Canonicalizer ***
func @conv2d_bias_sum_relu_requantize(%arg0: tensor<300x3xf32>, %arg1: tensor<300x5xf32>) -> tensor<300x5xf32> {
  %cst = constant dense<tensor<3x5xi8>, [[110, -110, -2, 5, -114], [-19, 62, 0, -128, 94], [30, -125, -86, -37, 59]]>
  %cst_0 = constant dense<tensor<5xi32>, [16, 32, 48, 63, 79]>
  %0 = "quant.qcast"(%arg0) : (tensor<300x3xf32>) -> tensor<300x3x!quant.uniform<u8:f32, 0.037564418067230126:163>>
  %1 = "quant.qcast"(%arg1) : (tensor<300x5xf32>) -> tensor<300x5x!quant.uniform<u8:f32, 0.037564418067230126:163>>
  %2 = "quant.scast"(%cst) : (tensor<3x5xi8>) -> tensor<3x5x!quant.uniform<u8:f32, 0.0062823070315864236:127>>
  %3 = "quant.scast"(%cst_0) : (tensor<5xi32>) -> tensor<5x!quant.uniform<i32:f32, 0.0629921259842528>>
  %4 = "fxpmath.real_conv2d_bias_sum_relu_requantize"(%0, %2, %3, %1) : (tensor<300x3x!quant.uniform<u8:f32, 0.037564418067230126:163>>, tensor<3x5x!quant.uniform<u8:f32, 0.0062823070315864236:127>>, tensor<5x!quant.uniform<i32:f32, 0.0629921259842528>>, tensor<300x5x!quant.uniform<u8:f32, 0.037564418067230126:163>>) -> tensor<300x5x!quant.uniform<u8:f32, 0.0629921259842528:127>>
  %5 = "quant.dcast"(%4) : (tensor<300x5x!quant.uniform<u8:f32, 0.0629921259842528:127>>) -> tensor<300x5xf32>
  return %5 : tensor<300x5xf32>
}

*** IR Dump After {anonymous}::Canonicalizer ***
func @conv2d_bias_relu(%arg0: tensor<300x3xf32>) -> tensor<300x5xf32> {
  %cst = constant dense<tensor<3x5xi8>, [[110, -110, -2, 5, -114], [-19, 62, 0, -128, 94], [30, -125, -86, -37, 59]]>
  %cst_0 = constant  {name: "constant.37"} dense<tensor<5xf32>, [1.000000e+00, 2.000000e+00, 3.000000e+00, 4.000000e+00, 5.000000e+00]>
  %0 = "quant.qcast"(%arg0) : (tensor<300x3xf32>) -> tensor<300x3x!quant.uniform<u8:f32, 0.037564418067230126:163>>
  %1 = "quant.scast"(%cst) : (tensor<3x5xi8>) -> tensor<3x5x!quant.uniform<u8:f32, 0.0062823070315864236:127>>
  %2 = "fxpmath.real_conv2d_bias_relu"(%0, %1, %cst_0) : (tensor<300x3x!quant.uniform<u8:f32, 0.037564418067230126:163>>, tensor<3x5x!quant.uniform<u8:f32, 0.0062823070315864236:127>>, tensor<5xf32>) -> tensor<300x5xf32>
  return %2 : tensor<300x5xf32>
}

*** IR Dump After {anonymous}::FunctionVerifier ***
func @conv2d_bias_relu(%arg0: tensor<300x3xf32>) -> tensor<300x5xf32> {
  %cst = constant dense<tensor<3x5xi8>, [[110, -110, -2, 5, -114], [-19, 62, 0, -128, 94], [30, -125, -86, -37, 59]]>
  %cst_0 = constant  {name: "constant.37"} dense<tensor<5xf32>, [1.000000e+00, 2.000000e+00, 3.000000e+00, 4.000000e+00, 5.000000e+00]>
  %0 = "quant.qcast"(%arg0) : (tensor<300x3xf32>) -> tensor<300x3x!quant.uniform<u8:f32, 0.037564418067230126:163>>
  %1 = "quant.scast"(%cst) : (tensor<3x5xi8>) -> tensor<3x5x!quant.uniform<u8:f32, 0.0062823070315864236:127>>
  %2 = "fxpmath.real_conv2d_bias_relu"(%0, %1, %cst_0) : (tensor<300x3x!quant.uniform<u8:f32, 0.037564418067230126:163>>, tensor<3x5x!quant.uniform<u8:f32, 0.0062823070315864236:127>>, tensor<5xf32>) -> tensor<300x5xf32>
  return %2 : tensor<300x5xf32>
}

*** IR Dump After {anonymous}::FunctionVerifier ***
func @conv2d_bias_relu_requantize(%arg0: tensor<300x3xf32>) -> tensor<300x5xf32> {
  %cst = constant dense<tensor<3x5xi8>, [[110, -110, -2, 5, -114], [-19, 62, 0, -128, 94], [30, -125, -86, -37, 59]]>
  %cst_0 = constant dense<tensor<5xi32>, [16, 32, 48, 63, 79]>
  %0 = "quant.qcast"(%arg0) : (tensor<300x3xf32>) -> tensor<300x3x!quant.uniform<u8:f32, 0.037564418067230126:163>>
  %1 = "quant.scast"(%cst) : (tensor<3x5xi8>) -> tensor<3x5x!quant.uniform<u8:f32, 0.0062823070315864236:127>>
  %2 = "quant.scast"(%cst_0) : (tensor<5xi32>) -> tensor<5x!quant.uniform<i32:f32, 0.0629921259842528>>
  %3 = "fxpmath.real_conv2d_bias_relu_requantize"(%0, %1, %2) : (tensor<300x3x!quant.uniform<u8:f32, 0.037564418067230126:163>>, tensor<3x5x!quant.uniform<u8:f32, 0.0062823070315864236:127>>, tensor<5x!quant.uniform<i32:f32, 0.0629921259842528>>) -> tensor<300x5x!quant.uniform<u8:f32, 0.0629921259842528:127>>
  %4 = "quant.dcast"(%3) : (tensor<300x5x!quant.uniform<u8:f32, 0.0629921259842528:127>>) -> tensor<300x5xf32>
  return %4 : tensor<300x5xf32>
}

*** IR Dump After {anonymous}::FunctionVerifier ***
func @conv2d_bias_requantize(%arg0: tensor<300x3xf32>) -> tensor<300x5xf32> {
  %cst = constant dense<tensor<3x5xi8>, [[110, -110, -2, 5, -114], [-19, 62, 0, -128, 94], [30, -125, -86, -37, 59]]>
  %cst_0 = constant dense<tensor<5xi32>, [16, 32, 48, 63, 79]>
  %0 = "quant.qcast"(%arg0) : (tensor<300x3xf32>) -> tensor<300x3x!quant.uniform<u8:f32, 0.037564418067230126:163>>
  %1 = "quant.scast"(%cst) : (tensor<3x5xi8>) -> tensor<3x5x!quant.uniform<u8:f32, 0.0062823070315864236:127>>
  %2 = "quant.scast"(%cst_0) : (tensor<5xi32>) -> tensor<5x!quant.uniform<i32:f32, 0.0629921259842528>>
  %3 = "fxpmath.real_conv2d_bias_requantize"(%0, %1, %2) : (tensor<300x3x!quant.uniform<u8:f32, 0.037564418067230126:163>>, tensor<3x5x!quant.uniform<u8:f32, 0.0062823070315864236:127>>, tensor<5x!quant.uniform<i32:f32, 0.0629921259842528>>) -> tensor<300x5x!quant.uniform<i8:f32, 0.0629921259842528:-1>>
  %4 = "quant.dcast"(%3) : (tensor<300x5x!quant.uniform<i8:f32, 0.0629921259842528:-1>>) -> tensor<300x5xf32>
  return %4 : tensor<300x5xf32>
}

*** IR Dump After {anonymous}::FunctionVerifier ***
func @conv2d_bias_sum_relu_requantize(%arg0: tensor<300x3xf32>, %arg1: tensor<300x5xf32>) -> tensor<300x5xf32> {
  %cst = constant dense<tensor<3x5xi8>, [[110, -110, -2, 5, -114], [-19, 62, 0, -128, 94], [30, -125, -86, -37, 59]]>
  %cst_0 = constant dense<tensor<5xi32>, [16, 32, 48, 63, 79]>
  %0 = "quant.qcast"(%arg0) : (tensor<300x3xf32>) -> tensor<300x3x!quant.uniform<u8:f32, 0.037564418067230126:163>>
  %1 = "quant.qcast"(%arg1) : (tensor<300x5xf32>) -> tensor<300x5x!quant.uniform<u8:f32, 0.037564418067230126:163>>
  %2 = "quant.scast"(%cst) : (tensor<3x5xi8>) -> tensor<3x5x!quant.uniform<u8:f32, 0.0062823070315864236:127>>
  %3 = "quant.scast"(%cst_0) : (tensor<5xi32>) -> tensor<5x!quant.uniform<i32:f32, 0.0629921259842528>>
  %4 = "fxpmath.real_conv2d_bias_sum_relu_requantize"(%0, %2, %3, %1) : (tensor<300x3x!quant.uniform<u8:f32, 0.037564418067230126:163>>, tensor<3x5x!quant.uniform<u8:f32, 0.0062823070315864236:127>>, tensor<5x!quant.uniform<i32:f32, 0.0629921259842528>>, tensor<300x5x!quant.uniform<u8:f32, 0.037564418067230126:163>>) -> tensor<300x5x!quant.uniform<u8:f32, 0.0629921259842528:127>>
  %5 = "quant.dcast"(%4) : (tensor<300x5x!quant.uniform<u8:f32, 0.0629921259842528:127>>) -> tensor<300x5xf32>
  return %5 : tensor<300x5xf32>
}

*** IR Dump After {anonymous}::FunctionVerifier ***
func @conv2d_bias(%arg0: tensor<300x3xf32>) -> tensor<300x5xf32> {
  %cst = constant dense<tensor<3x5xi8>, [[110, -110, -2, 5, -114], [-19, 62, 0, -128, 94], [30, -125, -86, -37, 59]]>
  %cst_0 = constant  {name: "constant.37"} dense<tensor<5xf32>, [1.000000e+00, 2.000000e+00, 3.000000e+00, 4.000000e+00, 5.000000e+00]>
  %0 = "quant.qcast"(%arg0) : (tensor<300x3xf32>) -> tensor<300x3x!quant.uniform<u8:f32, 0.037564418067230126:163>>
  %1 = "quant.scast"(%cst) : (tensor<3x5xi8>) -> tensor<3x5x!quant.uniform<u8:f32, 0.0062823070315864236:127>>
  %2 = "fxpmath.real_conv2d_bias"(%0, %1, %cst_0) : (tensor<300x3x!quant.uniform<u8:f32, 0.037564418067230126:163>>, tensor<3x5x!quant.uniform<u8:f32, 0.0062823070315864236:127>>, tensor<5xf32>) -> tensor<300x5xf32>
  return %2 : tensor<300x5xf32>
}

*** IR Dump After {anonymous}::Canonicalizer ***
func @conv2d_bias_requantize(%arg0: tensor<300x3xf32>) -> tensor<300x5xf32> {
  %cst = constant dense<tensor<3x5xi8>, [[110, -110, -2, 5, -114], [-19, 62, 0, -128, 94], [30, -125, -86, -37, 59]]>
  %cst_0 = constant dense<tensor<5xi32>, [16, 32, 48, 63, 79]>
  %0 = "quant.qcast"(%arg0) : (tensor<300x3xf32>) -> tensor<300x3x!quant.uniform<u8:f32, 0.037564418067230126:163>>
  %1 = "quant.scast"(%cst) : (tensor<3x5xi8>) -> tensor<3x5x!quant.uniform<u8:f32, 0.0062823070315864236:127>>
  %2 = "quant.scast"(%cst_0) : (tensor<5xi32>) -> tensor<5x!quant.uniform<i32:f32, 0.0629921259842528>>
  %3 = "fxpmath.real_conv2d_bias_requantize"(%0, %1, %2) : (tensor<300x3x!quant.uniform<u8:f32, 0.037564418067230126:163>>, tensor<3x5x!quant.uniform<u8:f32, 0.0062823070315864236:127>>, tensor<5x!quant.uniform<i32:f32, 0.0629921259842528>>) -> tensor<300x5x!quant.uniform<i8:f32, 0.0629921259842528:-1>>
  %4 = "quant.dcast"(%3) : (tensor<300x5x!quant.uniform<i8:f32, 0.0629921259842528:-1>>) -> tensor<300x5xf32>
  return %4 : tensor<300x5xf32>
}

*** IR Dump After {anonymous}::FunctionVerifier ***
func @conv2d_bias_requantize(%arg0: tensor<300x3xf32>) -> tensor<300x5xf32> {
  %cst = constant dense<tensor<3x5xi8>, [[110, -110, -2, 5, -114], [-19, 62, 0, -128, 94], [30, -125, -86, -37, 59]]>
  %cst_0 = constant dense<tensor<5xi32>, [16, 32, 48, 63, 79]>
  %0 = "quant.qcast"(%arg0) : (tensor<300x3xf32>) -> tensor<300x3x!quant.uniform<u8:f32, 0.037564418067230126:163>>
  %1 = "quant.scast"(%cst) : (tensor<3x5xi8>) -> tensor<3x5x!quant.uniform<u8:f32, 0.0062823070315864236:127>>
  %2 = "quant.scast"(%cst_0) : (tensor<5xi32>) -> tensor<5x!quant.uniform<i32:f32, 0.0629921259842528>>
  %3 = "fxpmath.real_conv2d_bias_requantize"(%0, %1, %2) : (tensor<300x3x!quant.uniform<u8:f32, 0.037564418067230126:163>>, tensor<3x5x!quant.uniform<u8:f32, 0.0062823070315864236:127>>, tensor<5x!quant.uniform<i32:f32, 0.0629921259842528>>) -> tensor<300x5x!quant.uniform<i8:f32, 0.0629921259842528:-1>>
  %4 = "quant.dcast"(%3) : (tensor<300x5x!quant.uniform<i8:f32, 0.0629921259842528:-1>>) -> tensor<300x5xf32>
  return %4 : tensor<300x5xf32>
}

*** IR Dump After {anonymous}::ModuleVerifier ***


func @conv2d(%arg0: tensor<300x3xf32>) -> tensor<300x5xf32> {
  %cst = constant dense<tensor<3x5xi8>, [[110, -110, -2, 5, -114], [-19, 62, 0, -128, 94], [30, -125, -86, -37, 59]]>
  %0 = "quant.qcast"(%arg0) : (tensor<300x3xf32>) -> tensor<300x3x!quant.uniform<u8:f32, 0.037564418067230126:163>>
  %1 = "quant.scast"(%cst) : (tensor<3x5xi8>) -> tensor<3x5x!quant.uniform<u8:f32, 0.0062823070315864236:127>>
  %2 = "fxpmath.real_conv2d"(%0, %1) : (tensor<300x3x!quant.uniform<u8:f32, 0.037564418067230126:163>>, tensor<3x5x!quant.uniform<u8:f32, 0.0062823070315864236:127>>) -> tensor<300x5xf32>
  return %2 : tensor<300x5xf32>
}

func @conv2d_requantize(%arg0: tensor<300x3xf32>) -> tensor<300x5xf32> {
  %cst = constant dense<tensor<3x5xi8>, [[110, -110, -2, 5, -114], [-19, 62, 0, -128, 94], [30, -125, -86, -37, 59]]>
  %0 = "quant.qcast"(%arg0) : (tensor<300x3xf32>) -> tensor<300x3x!quant.uniform<u8:f32, 0.037564418067230126:163>>
  %1 = "quant.scast"(%cst) : (tensor<3x5xi8>) -> tensor<3x5x!quant.uniform<u8:f32, 0.0062823070315864236:127>>
  %2 = "fxpmath.real_conv2d_requantize"(%0, %1) : (tensor<300x3x!quant.uniform<u8:f32, 0.037564418067230126:163>>, tensor<3x5x!quant.uniform<u8:f32, 0.0062823070315864236:127>>) -> tensor<300x5x!quant.uniform<i8:f32, 0.0629921259842528:-1>>
  %3 = "quant.dcast"(%2) : (tensor<300x5x!quant.uniform<i8:f32, 0.0629921259842528:-1>>) -> tensor<300x5xf32>
  return %3 : tensor<300x5xf32>
}

func @conv2d_relu(%arg0: tensor<300x3xf32>) -> tensor<300x5xf32> {
  %cst = constant dense<tensor<3x5xi8>, [[110, -110, -2, 5, -114], [-19, 62, 0, -128, 94], [30, -125, -86, -37, 59]]>
  %0 = "quant.qcast"(%arg0) : (tensor<300x3xf32>) -> tensor<300x3x!quant.uniform<u8:f32, 0.037564418067230126:163>>
  %1 = "quant.scast"(%cst) : (tensor<3x5xi8>) -> tensor<3x5x!quant.uniform<u8:f32, 0.0062823070315864236:127>>
  %2 = "fxpmath.real_conv2d_relu"(%0, %1) : (tensor<300x3x!quant.uniform<u8:f32, 0.037564418067230126:163>>, tensor<3x5x!quant.uniform<u8:f32, 0.0062823070315864236:127>>) -> tensor<300x5xf32>
  return %2 : tensor<300x5xf32>
}

func @conv2d_relu_requantize(%arg0: tensor<300x3xf32>) -> tensor<300x5xf32> {
  %cst = constant dense<tensor<3x5xi8>, [[110, -110, -2, 5, -114], [-19, 62, 0, -128, 94], [30, -125, -86, -37, 59]]>
  %0 = "quant.qcast"(%arg0) : (tensor<300x3xf32>) -> tensor<300x3x!quant.uniform<u8:f32, 0.037564418067230126:163>>
  %1 = "quant.scast"(%cst) : (tensor<3x5xi8>) -> tensor<3x5x!quant.uniform<u8:f32, 0.0062823070315864236:127>>
  %2 = "fxpmath.real_conv2d_relu_requantize"(%0, %1) : (tensor<300x3x!quant.uniform<u8:f32, 0.037564418067230126:163>>, tensor<3x5x!quant.uniform<u8:f32, 0.0062823070315864236:127>>) -> tensor<300x5x!quant.uniform<i8:f32, 0.0629921259842528:-1>>
  %3 = "quant.dcast"(%2) : (tensor<300x5x!quant.uniform<i8:f32, 0.0629921259842528:-1>>) -> tensor<300x5xf32>
  return %3 : tensor<300x5xf32>
}

func @conv2d_bias(%arg0: tensor<300x3xf32>) -> tensor<300x5xf32> {
  %cst = constant dense<tensor<3x5xi8>, [[110, -110, -2, 5, -114], [-19, 62, 0, -128, 94], [30, -125, -86, -37, 59]]>
  %cst_0 = constant  {name: "constant.37"} dense<tensor<5xf32>, [1.000000e+00, 2.000000e+00, 3.000000e+00, 4.000000e+00, 5.000000e+00]>
  %0 = "quant.qcast"(%arg0) : (tensor<300x3xf32>) -> tensor<300x3x!quant.uniform<u8:f32, 0.037564418067230126:163>>
  %1 = "quant.scast"(%cst) : (tensor<3x5xi8>) -> tensor<3x5x!quant.uniform<u8:f32, 0.0062823070315864236:127>>
  %2 = "fxpmath.real_conv2d_bias"(%0, %1, %cst_0) : (tensor<300x3x!quant.uniform<u8:f32, 0.037564418067230126:163>>, tensor<3x5x!quant.uniform<u8:f32, 0.0062823070315864236:127>>, tensor<5xf32>) -> tensor<300x5xf32>
  return %2 : tensor<300x5xf32>
}

func @conv2d_bias_requantize(%arg0: tensor<300x3xf32>) -> tensor<300x5xf32> {
  %cst = constant dense<tensor<3x5xi8>, [[110, -110, -2, 5, -114], [-19, 62, 0, -128, 94], [30, -125, -86, -37, 59]]>
  %cst_0 = constant dense<tensor<5xi32>, [16, 32, 48, 63, 79]>
  %0 = "quant.qcast"(%arg0) : (tensor<300x3xf32>) -> tensor<300x3x!quant.uniform<u8:f32, 0.037564418067230126:163>>
  %1 = "quant.scast"(%cst) : (tensor<3x5xi8>) -> tensor<3x5x!quant.uniform<u8:f32, 0.0062823070315864236:127>>
  %2 = "quant.scast"(%cst_0) : (tensor<5xi32>) -> tensor<5x!quant.uniform<i32:f32, 0.0629921259842528>>
  %3 = "fxpmath.real_conv2d_bias_requantize"(%0, %1, %2) : (tensor<300x3x!quant.uniform<u8:f32, 0.037564418067230126:163>>, tensor<3x5x!quant.uniform<u8:f32, 0.0062823070315864236:127>>, tensor<5x!quant.uniform<i32:f32, 0.0629921259842528>>) -> tensor<300x5x!quant.uniform<i8:f32, 0.0629921259842528:-1>>
  %4 = "quant.dcast"(%3) : (tensor<300x5x!quant.uniform<i8:f32, 0.0629921259842528:-1>>) -> tensor<300x5xf32>
  return %4 : tensor<300x5xf32>
}

func @conv2d_bias_relu(%arg0: tensor<300x3xf32>) -> tensor<300x5xf32> {
  %cst = constant dense<tensor<3x5xi8>, [[110, -110, -2, 5, -114], [-19, 62, 0, -128, 94], [30, -125, -86, -37, 59]]>
  %cst_0 = constant  {name: "constant.37"} dense<tensor<5xf32>, [1.000000e+00, 2.000000e+00, 3.000000e+00, 4.000000e+00, 5.000000e+00]>
  %0 = "quant.qcast"(%arg0) : (tensor<300x3xf32>) -> tensor<300x3x!quant.uniform<u8:f32, 0.037564418067230126:163>>
  %1 = "quant.scast"(%cst) : (tensor<3x5xi8>) -> tensor<3x5x!quant.uniform<u8:f32, 0.0062823070315864236:127>>
  %2 = "fxpmath.real_conv2d_bias_relu"(%0, %1, %cst_0) : (tensor<300x3x!quant.uniform<u8:f32, 0.037564418067230126:163>>, tensor<3x5x!quant.uniform<u8:f32, 0.0062823070315864236:127>>, tensor<5xf32>) -> tensor<300x5xf32>
  return %2 : tensor<300x5xf32>
}

func @conv2d_bias_relu_requantize(%arg0: tensor<300x3xf32>) -> tensor<300x5xf32> {
  %cst = constant dense<tensor<3x5xi8>, [[110, -110, -2, 5, -114], [-19, 62, 0, -128, 94], [30, -125, -86, -37, 59]]>
  %cst_0 = constant dense<tensor<5xi32>, [16, 32, 48, 63, 79]>
  %0 = "quant.qcast"(%arg0) : (tensor<300x3xf32>) -> tensor<300x3x!quant.uniform<u8:f32, 0.037564418067230126:163>>
  %1 = "quant.scast"(%cst) : (tensor<3x5xi8>) -> tensor<3x5x!quant.uniform<u8:f32, 0.0062823070315864236:127>>
  %2 = "quant.scast"(%cst_0) : (tensor<5xi32>) -> tensor<5x!quant.uniform<i32:f32, 0.0629921259842528>>
  %3 = "fxpmath.real_conv2d_bias_relu_requantize"(%0, %1, %2) : (tensor<300x3x!quant.uniform<u8:f32, 0.037564418067230126:163>>, tensor<3x5x!quant.uniform<u8:f32, 0.0062823070315864236:127>>, tensor<5x!quant.uniform<i32:f32, 0.0629921259842528>>) -> tensor<300x5x!quant.uniform<u8:f32, 0.0629921259842528:127>>
  %4 = "quant.dcast"(%3) : (tensor<300x5x!quant.uniform<u8:f32, 0.0629921259842528:127>>) -> tensor<300x5xf32>
  return %4 : tensor<300x5xf32>
}

func @conv2d_bias_sum_relu(%arg0: tensor<300x3xf32>, %arg1: tensor<300x5xf32>) -> tensor<300x5xf32> {
  %cst = constant dense<tensor<3x5xi8>, [[110, -110, -2, 5, -114], [-19, 62, 0, -128, 94], [30, -125, -86, -37, 59]]>
  %cst_0 = constant  {name: "constant.37"} dense<tensor<5xf32>, [1.000000e+00, 2.000000e+00, 3.000000e+00, 4.000000e+00, 5.000000e+00]>
  %0 = "quant.qcast"(%arg0) : (tensor<300x3xf32>) -> tensor<300x3x!quant.uniform<u8:f32, 0.037564418067230126:163>>
  %1 = "quant.qcast"(%arg1) : (tensor<300x5xf32>) -> tensor<300x5x!quant.uniform<u8:f32, 0.037564418067230126:163>>
  %2 = "quant.scast"(%cst) : (tensor<3x5xi8>) -> tensor<3x5x!quant.uniform<u8:f32, 0.0062823070315864236:127>>
  %3 = "fxpmath.real_conv2d_bias_sum_relu"(%0, %2, %cst_0, %1) : (tensor<300x3x!quant.uniform<u8:f32, 0.037564418067230126:163>>, tensor<3x5x!quant.uniform<u8:f32, 0.0062823070315864236:127>>, tensor<5xf32>, tensor<300x5x!quant.uniform<u8:f32, 0.037564418067230126:163>>) -> tensor<300x5xf32>
  return %3 : tensor<300x5xf32>
}

func @conv2d_bias_sum_relu_requantize(%arg0: tensor<300x3xf32>, %arg1: tensor<300x5xf32>) -> tensor<300x5xf32> {
  %cst = constant dense<tensor<3x5xi8>, [[110, -110, -2, 5, -114], [-19, 62, 0, -128, 94], [30, -125, -86, -37, 59]]>
  %cst_0 = constant dense<tensor<5xi32>, [16, 32, 48, 63, 79]>
  %0 = "quant.qcast"(%arg0) : (tensor<300x3xf32>) -> tensor<300x3x!quant.uniform<u8:f32, 0.037564418067230126:163>>
  %1 = "quant.qcast"(%arg1) : (tensor<300x5xf32>) -> tensor<300x5x!quant.uniform<u8:f32, 0.037564418067230126:163>>
  %2 = "quant.scast"(%cst) : (tensor<3x5xi8>) -> tensor<3x5x!quant.uniform<u8:f32, 0.0062823070315864236:127>>
  %3 = "quant.scast"(%cst_0) : (tensor<5xi32>) -> tensor<5x!quant.uniform<i32:f32, 0.0629921259842528>>
  %4 = "fxpmath.real_conv2d_bias_sum_relu_requantize"(%0, %2, %3, %1) : (tensor<300x3x!quant.uniform<u8:f32, 0.037564418067230126:163>>, tensor<3x5x!quant.uniform<u8:f32, 0.0062823070315864236:127>>, tensor<5x!quant.uniform<i32:f32, 0.0629921259842528>>, tensor<300x5x!quant.uniform<u8:f32, 0.037564418067230126:163>>) -> tensor<300x5x!quant.uniform<u8:f32, 0.0629921259842528:127>>
  %5 = "quant.dcast"(%4) : (tensor<300x5x!quant.uniform<u8:f32, 0.0629921259842528:127>>) -> tensor<300x5xf32>
  return %5 : tensor<300x5xf32>
}



func @conv2d(%arg0: tensor<300x3xf32>) -> tensor<300x5xf32> {
  %cst = constant dense<tensor<3x5xi8>, [[110, -110, -2, 5, -114], [-19, 62, 0, -128, 94], [30, -125, -86, -37, 59]]>
  %0 = "quant.qcast"(%arg0) : (tensor<300x3xf32>) -> tensor<300x3x!quant.uniform<u8:f32, 0.037564418067230126:163>>
  %1 = "quant.scast"(%cst) : (tensor<3x5xi8>) -> tensor<3x5x!quant.uniform<u8:f32, 0.0062823070315864236:127>>
  %2 = "fxpmath.real_conv2d"(%0, %1) : (tensor<300x3x!quant.uniform<u8:f32, 0.037564418067230126:163>>, tensor<3x5x!quant.uniform<u8:f32, 0.0062823070315864236:127>>) -> tensor<300x5xf32>
  return %2 : tensor<300x5xf32>
}

func @conv2d_requantize(%arg0: tensor<300x3xf32>) -> tensor<300x5xf32> {
  %cst = constant dense<tensor<3x5xi8>, [[110, -110, -2, 5, -114], [-19, 62, 0, -128, 94], [30, -125, -86, -37, 59]]>
  %0 = "quant.qcast"(%arg0) : (tensor<300x3xf32>) -> tensor<300x3x!quant.uniform<u8:f32, 0.037564418067230126:163>>
  %1 = "quant.scast"(%cst) : (tensor<3x5xi8>) -> tensor<3x5x!quant.uniform<u8:f32, 0.0062823070315864236:127>>
  %2 = "fxpmath.real_conv2d_requantize"(%0, %1) : (tensor<300x3x!quant.uniform<u8:f32, 0.037564418067230126:163>>, tensor<3x5x!quant.uniform<u8:f32, 0.0062823070315864236:127>>) -> tensor<300x5x!quant.uniform<i8:f32, 0.0629921259842528:-1>>
  %3 = "quant.dcast"(%2) : (tensor<300x5x!quant.uniform<i8:f32, 0.0629921259842528:-1>>) -> tensor<300x5xf32>
  return %3 : tensor<300x5xf32>
}

func @conv2d_relu(%arg0: tensor<300x3xf32>) -> tensor<300x5xf32> {
  %cst = constant dense<tensor<3x5xi8>, [[110, -110, -2, 5, -114], [-19, 62, 0, -128, 94], [30, -125, -86, -37, 59]]>
  %0 = "quant.qcast"(%arg0) : (tensor<300x3xf32>) -> tensor<300x3x!quant.uniform<u8:f32, 0.037564418067230126:163>>
  %1 = "quant.scast"(%cst) : (tensor<3x5xi8>) -> tensor<3x5x!quant.uniform<u8:f32, 0.0062823070315864236:127>>
  %2 = "fxpmath.real_conv2d_relu"(%0, %1) : (tensor<300x3x!quant.uniform<u8:f32, 0.037564418067230126:163>>, tensor<3x5x!quant.uniform<u8:f32, 0.0062823070315864236:127>>) -> tensor<300x5xf32>
  return %2 : tensor<300x5xf32>
}

func @conv2d_relu_requantize(%arg0: tensor<300x3xf32>) -> tensor<300x5xf32> {
  %cst = constant dense<tensor<3x5xi8>, [[110, -110, -2, 5, -114], [-19, 62, 0, -128, 94], [30, -125, -86, -37, 59]]>
  %0 = "quant.qcast"(%arg0) : (tensor<300x3xf32>) -> tensor<300x3x!quant.uniform<u8:f32, 0.037564418067230126:163>>
  %1 = "quant.scast"(%cst) : (tensor<3x5xi8>) -> tensor<3x5x!quant.uniform<u8:f32, 0.0062823070315864236:127>>
  %2 = "fxpmath.real_conv2d_relu_requantize"(%0, %1) : (tensor<300x3x!quant.uniform<u8:f32, 0.037564418067230126:163>>, tensor<3x5x!quant.uniform<u8:f32, 0.0062823070315864236:127>>) -> tensor<300x5x!quant.uniform<i8:f32, 0.0629921259842528:-1>>
  %3 = "quant.dcast"(%2) : (tensor<300x5x!quant.uniform<i8:f32, 0.0629921259842528:-1>>) -> tensor<300x5xf32>
  return %3 : tensor<300x5xf32>
}

func @conv2d_bias(%arg0: tensor<300x3xf32>) -> tensor<300x5xf32> {
  %cst = constant dense<tensor<3x5xi8>, [[110, -110, -2, 5, -114], [-19, 62, 0, -128, 94], [30, -125, -86, -37, 59]]>
  %cst_0 = constant  {name: "constant.37"} dense<tensor<5xf32>, [1.000000e+00, 2.000000e+00, 3.000000e+00, 4.000000e+00, 5.000000e+00]>
  %0 = "quant.qcast"(%arg0) : (tensor<300x3xf32>) -> tensor<300x3x!quant.uniform<u8:f32, 0.037564418067230126:163>>
  %1 = "quant.scast"(%cst) : (tensor<3x5xi8>) -> tensor<3x5x!quant.uniform<u8:f32, 0.0062823070315864236:127>>
  %2 = "fxpmath.real_conv2d_bias"(%0, %1, %cst_0) : (tensor<300x3x!quant.uniform<u8:f32, 0.037564418067230126:163>>, tensor<3x5x!quant.uniform<u8:f32, 0.0062823070315864236:127>>, tensor<5xf32>) -> tensor<300x5xf32>
  return %2 : tensor<300x5xf32>
}

func @conv2d_bias_requantize(%arg0: tensor<300x3xf32>) -> tensor<300x5xf32> {
  %cst = constant dense<tensor<3x5xi8>, [[110, -110, -2, 5, -114], [-19, 62, 0, -128, 94], [30, -125, -86, -37, 59]]>
  %cst_0 = constant dense<tensor<5xi32>, [16, 32, 48, 63, 79]>
  %0 = "quant.qcast"(%arg0) : (tensor<300x3xf32>) -> tensor<300x3x!quant.uniform<u8:f32, 0.037564418067230126:163>>
  %1 = "quant.scast"(%cst) : (tensor<3x5xi8>) -> tensor<3x5x!quant.uniform<u8:f32, 0.0062823070315864236:127>>
  %2 = "quant.scast"(%cst_0) : (tensor<5xi32>) -> tensor<5x!quant.uniform<i32:f32, 0.0629921259842528>>
  %3 = "fxpmath.real_conv2d_bias_requantize"(%0, %1, %2) : (tensor<300x3x!quant.uniform<u8:f32, 0.037564418067230126:163>>, tensor<3x5x!quant.uniform<u8:f32, 0.0062823070315864236:127>>, tensor<5x!quant.uniform<i32:f32, 0.0629921259842528>>) -> tensor<300x5x!quant.uniform<i8:f32, 0.0629921259842528:-1>>
  %4 = "quant.dcast"(%3) : (tensor<300x5x!quant.uniform<i8:f32, 0.0629921259842528:-1>>) -> tensor<300x5xf32>
  return %4 : tensor<300x5xf32>
}

func @conv2d_bias_relu(%arg0: tensor<300x3xf32>) -> tensor<300x5xf32> {
  %cst = constant dense<tensor<3x5xi8>, [[110, -110, -2, 5, -114], [-19, 62, 0, -128, 94], [30, -125, -86, -37, 59]]>
  %cst_0 = constant  {name: "constant.37"} dense<tensor<5xf32>, [1.000000e+00, 2.000000e+00, 3.000000e+00, 4.000000e+00, 5.000000e+00]>
  %0 = "quant.qcast"(%arg0) : (tensor<300x3xf32>) -> tensor<300x3x!quant.uniform<u8:f32, 0.037564418067230126:163>>
  %1 = "quant.scast"(%cst) : (tensor<3x5xi8>) -> tensor<3x5x!quant.uniform<u8:f32, 0.0062823070315864236:127>>
  %2 = "fxpmath.real_conv2d_bias_relu"(%0, %1, %cst_0) : (tensor<300x3x!quant.uniform<u8:f32, 0.037564418067230126:163>>, tensor<3x5x!quant.uniform<u8:f32, 0.0062823070315864236:127>>, tensor<5xf32>) -> tensor<300x5xf32>
  return %2 : tensor<300x5xf32>
}

func @conv2d_bias_relu_requantize(%arg0: tensor<300x3xf32>) -> tensor<300x5xf32> {
  %cst = constant dense<tensor<3x5xi8>, [[110, -110, -2, 5, -114], [-19, 62, 0, -128, 94], [30, -125, -86, -37, 59]]>
  %cst_0 = constant dense<tensor<5xi32>, [16, 32, 48, 63, 79]>
  %0 = "quant.qcast"(%arg0) : (tensor<300x3xf32>) -> tensor<300x3x!quant.uniform<u8:f32, 0.037564418067230126:163>>
  %1 = "quant.scast"(%cst) : (tensor<3x5xi8>) -> tensor<3x5x!quant.uniform<u8:f32, 0.0062823070315864236:127>>
  %2 = "quant.scast"(%cst_0) : (tensor<5xi32>) -> tensor<5x!quant.uniform<i32:f32, 0.0629921259842528>>
  %3 = "fxpmath.real_conv2d_bias_relu_requantize"(%0, %1, %2) : (tensor<300x3x!quant.uniform<u8:f32, 0.037564418067230126:163>>, tensor<3x5x!quant.uniform<u8:f32, 0.0062823070315864236:127>>, tensor<5x!quant.uniform<i32:f32, 0.0629921259842528>>) -> tensor<300x5x!quant.uniform<u8:f32, 0.0629921259842528:127>>
  %4 = "quant.dcast"(%3) : (tensor<300x5x!quant.uniform<u8:f32, 0.0629921259842528:127>>) -> tensor<300x5xf32>
  return %4 : tensor<300x5xf32>
}

func @conv2d_bias_sum_relu(%arg0: tensor<300x3xf32>, %arg1: tensor<300x5xf32>) -> tensor<300x5xf32> {
  %cst = constant dense<tensor<3x5xi8>, [[110, -110, -2, 5, -114], [-19, 62, 0, -128, 94], [30, -125, -86, -37, 59]]>
  %cst_0 = constant  {name: "constant.37"} dense<tensor<5xf32>, [1.000000e+00, 2.000000e+00, 3.000000e+00, 4.000000e+00, 5.000000e+00]>
  %0 = "quant.qcast"(%arg0) : (tensor<300x3xf32>) -> tensor<300x3x!quant.uniform<u8:f32, 0.037564418067230126:163>>
  %1 = "quant.qcast"(%arg1) : (tensor<300x5xf32>) -> tensor<300x5x!quant.uniform<u8:f32, 0.037564418067230126:163>>
  %2 = "quant.scast"(%cst) : (tensor<3x5xi8>) -> tensor<3x5x!quant.uniform<u8:f32, 0.0062823070315864236:127>>
  %3 = "fxpmath.real_conv2d_bias_sum_relu"(%0, %2, %cst_0, %1) : (tensor<300x3x!quant.uniform<u8:f32, 0.037564418067230126:163>>, tensor<3x5x!quant.uniform<u8:f32, 0.0062823070315864236:127>>, tensor<5xf32>, tensor<300x5x!quant.uniform<u8:f32, 0.037564418067230126:163>>) -> tensor<300x5xf32>
  return %3 : tensor<300x5xf32>
}

func @conv2d_bias_sum_relu_requantize(%arg0: tensor<300x3xf32>, %arg1: tensor<300x5xf32>) -> tensor<300x5xf32> {
  %cst = constant dense<tensor<3x5xi8>, [[110, -110, -2, 5, -114], [-19, 62, 0, -128, 94], [30, -125, -86, -37, 59]]>
  %cst_0 = constant dense<tensor<5xi32>, [16, 32, 48, 63, 79]>
  %0 = "quant.qcast"(%arg0) : (tensor<300x3xf32>) -> tensor<300x3x!quant.uniform<u8:f32, 0.037564418067230126:163>>
  %1 = "quant.qcast"(%arg1) : (tensor<300x5xf32>) -> tensor<300x5x!quant.uniform<u8:f32, 0.037564418067230126:163>>
  %2 = "quant.scast"(%cst) : (tensor<3x5xi8>) -> tensor<3x5x!quant.uniform<u8:f32, 0.0062823070315864236:127>>
  %3 = "quant.scast"(%cst_0) : (tensor<5xi32>) -> tensor<5x!quant.uniform<i32:f32, 0.0629921259842528>>
  %4 = "fxpmath.real_conv2d_bias_sum_relu_requantize"(%0, %2, %3, %1) : (tensor<300x3x!quant.uniform<u8:f32, 0.037564418067230126:163>>, tensor<3x5x!quant.uniform<u8:f32, 0.0062823070315864236:127>>, tensor<5x!quant.uniform<i32:f32, 0.0629921259842528>>, tensor<300x5x!quant.uniform<u8:f32, 0.037564418067230126:163>>) -> tensor<300x5x!quant.uniform<u8:f32, 0.0629921259842528:127>>
  %5 = "quant.dcast"(%4) : (tensor<300x5x!quant.uniform<u8:f32, 0.0629921259842528:127>>) -> tensor<300x5xf32>
  return %5 : tensor<300x5xf32>
}

